<?xml version="1.0" ?>
<net name="torch-jit-export" version="11">
	<layers>
		<layer id="12" name="0" type="Parameter" version="opset1">
			<data shape="1,3,160,80" element_type="f32"/>
			<rt_info>
				<attribute name="old_api_map_element_type" version="0" value="f16"/>
			</rt_info>
			<output>
				<port id="0" precision="FP32" names="0">
					<dim>1</dim>
					<dim>3</dim>
					<dim>160</dim>
					<dim>80</dim>
					<rt_info>
						<attribute name="layout" version="0" layout="[N,C,H,W]"/>
					</rt_info>
				</port>
			</output>
		</layer>
		<layer id="0" name="4011401514194" type="Const" version="opset1">
			<data offset="0" size="4" shape="" element_type="f32"/>
			<output>
				<port id="0" precision="FP32"/>
			</output>
		</layer>
		<layer id="1" name="4012401614023" type="Const" version="opset1">
			<data offset="4" size="4" shape="" element_type="f32"/>
			<output>
				<port id="0" precision="FP32"/>
			</output>
		</layer>
		<layer id="2" name="4013401714170" type="Const" version="opset1">
			<data offset="0" size="4" shape="" element_type="f32"/>
			<output>
				<port id="0" precision="FP32"/>
			</output>
		</layer>
		<layer id="3" name="4014401813849" type="Const" version="opset1">
			<data offset="4" size="4" shape="" element_type="f32"/>
			<output>
				<port id="0" precision="FP32"/>
			</output>
		</layer>
		<layer id="4" name="1649165315238" type="Const" version="opset1">
			<data offset="0" size="4" shape="" element_type="f32"/>
			<output>
				<port id="0" precision="FP32"/>
			</output>
		</layer>
		<layer id="5" name="1650165413789" type="Const" version="opset1">
			<data offset="4" size="4" shape="" element_type="f32"/>
			<output>
				<port id="0" precision="FP32"/>
			</output>
		</layer>
		<layer id="6" name="1651165514239" type="Const" version="opset1">
			<data offset="0" size="4" shape="" element_type="f32"/>
			<output>
				<port id="0" precision="FP32"/>
			</output>
		</layer>
		<layer id="7" name="1652165613765" type="Const" version="opset1">
			<data offset="4" size="4" shape="" element_type="f32"/>
			<output>
				<port id="0" precision="FP32"/>
			</output>
		</layer>
		<layer id="8" name="2609261314131" type="Const" version="opset1">
			<data offset="8" size="4" shape="" element_type="f32"/>
			<output>
				<port id="0" precision="FP32"/>
			</output>
		</layer>
		<layer id="9" name="2610261413987" type="Const" version="opset1">
			<data offset="12" size="4" shape="" element_type="f32"/>
			<output>
				<port id="0" precision="FP32"/>
			</output>
		</layer>
		<layer id="10" name="2611261515256" type="Const" version="opset1">
			<data offset="8" size="4" shape="" element_type="f32"/>
			<output>
				<port id="0" precision="FP32"/>
			</output>
		</layer>
		<layer id="11" name="2612261614830" type="Const" version="opset1">
			<data offset="12" size="4" shape="" element_type="f32"/>
			<output>
				<port id="0" precision="FP32"/>
			</output>
		</layer>
		<layer id="13" name="Constant_199550414725" type="Const" version="opset1">
			<data offset="16" size="6" shape="1,3,1,1" element_type="f16"/>
			<output>
				<port id="0" precision="FP16">
					<dim>1</dim>
					<dim>3</dim>
					<dim>1</dim>
					<dim>1</dim>
				</port>
			</output>
		</layer>
		<layer id="14" name="Constant_19955047500/restored_convert" type="Convert" version="opset1">
			<data destination_type="f32"/>
			<rt_info>
				<attribute name="decompression" version="0"/>
			</rt_info>
			<input>
				<port id="0">
					<dim>1</dim>
					<dim>3</dim>
					<dim>1</dim>
					<dim>1</dim>
				</port>
			</input>
			<output>
				<port id="1" precision="FP32">
					<dim>1</dim>
					<dim>3</dim>
					<dim>1</dim>
					<dim>1</dim>
				</port>
			</output>
		</layer>
		<layer id="15" name="Subtract_1996" type="Subtract" version="opset1">
			<data auto_broadcast="numpy"/>
			<rt_info>
				<attribute name="preprocessing" version="0"/>
			</rt_info>
			<input>
				<port id="0">
					<dim>1</dim>
					<dim>3</dim>
					<dim>160</dim>
					<dim>80</dim>
				</port>
				<port id="1">
					<dim>1</dim>
					<dim>3</dim>
					<dim>1</dim>
					<dim>1</dim>
				</port>
			</input>
			<output>
				<port id="2" precision="FP32">
					<dim>1</dim>
					<dim>3</dim>
					<dim>160</dim>
					<dim>80</dim>
				</port>
			</output>
		</layer>
		<layer id="16" name="274/WithoutBiases/fq_input_0" type="FakeQuantize" version="opset1">
			<data levels="256" auto_broadcast="numpy"/>
			<input>
				<port id="0">
					<dim>1</dim>
					<dim>3</dim>
					<dim>160</dim>
					<dim>80</dim>
				</port>
				<port id="1"/>
				<port id="2"/>
				<port id="3"/>
				<port id="4"/>
			</input>
			<output>
				<port id="5" precision="FP32">
					<dim>1</dim>
					<dim>3</dim>
					<dim>160</dim>
					<dim>80</dim>
				</port>
			</output>
		</layer>
		<layer id="17" name="274/WithoutBiases/fq_weights_1/scale1045914059" type="Const" version="opset1">
			<data offset="22" size="64" shape="16,1,1,1" element_type="f32"/>
			<output>
				<port id="0" precision="FP32">
					<dim>16</dim>
					<dim>1</dim>
					<dim>1</dim>
					<dim>1</dim>
				</port>
			</output>
		</layer>
		<layer id="18" name="Constant_91855077501/restored_convert/quantized1045114899" type="Const" version="opset1">
			<data offset="86" size="2352" shape="16,3,7,7" element_type="i8"/>
			<output>
				<port id="0" precision="I8">
					<dim>16</dim>
					<dim>3</dim>
					<dim>7</dim>
					<dim>7</dim>
				</port>
			</output>
		</layer>
		<layer id="19" name="Constant_91855077501/restored_convert/quantized/to_f32" type="Convert" version="opset1">
			<data destination_type="f32"/>
			<input>
				<port id="0">
					<dim>16</dim>
					<dim>3</dim>
					<dim>7</dim>
					<dim>7</dim>
				</port>
			</input>
			<output>
				<port id="1" precision="FP32">
					<dim>16</dim>
					<dim>3</dim>
					<dim>7</dim>
					<dim>7</dim>
				</port>
			</output>
		</layer>
		<layer id="20" name="274/WithoutBiases/fq_weights_1/mulpiply_by_scale" type="Multiply" version="opset1">
			<data auto_broadcast="numpy"/>
			<input>
				<port id="0">
					<dim>16</dim>
					<dim>3</dim>
					<dim>7</dim>
					<dim>7</dim>
				</port>
				<port id="1">
					<dim>16</dim>
					<dim>1</dim>
					<dim>1</dim>
					<dim>1</dim>
				</port>
			</input>
			<output>
				<port id="2" precision="FP32">
					<dim>16</dim>
					<dim>3</dim>
					<dim>7</dim>
					<dim>7</dim>
				</port>
			</output>
		</layer>
		<layer id="21" name="274/WithoutBiases" type="Convolution" version="opset1">
			<data auto_pad="explicit" strides="2,2" dilations="1,1" pads_begin="3,3" pads_end="3,3"/>
			<rt_info>
				<attribute name="preprocessing" version="0"/>
			</rt_info>
			<input>
				<port id="0">
					<dim>1</dim>
					<dim>3</dim>
					<dim>160</dim>
					<dim>80</dim>
				</port>
				<port id="1">
					<dim>16</dim>
					<dim>3</dim>
					<dim>7</dim>
					<dim>7</dim>
				</port>
			</input>
			<output>
				<port id="2" precision="FP32">
					<dim>1</dim>
					<dim>16</dim>
					<dim>80</dim>
					<dim>40</dim>
				</port>
			</output>
		</layer>
		<layer id="22" name="Reshape_29451013687" type="Const" version="opset1">
			<data offset="2438" size="32" shape="1,16,1,1" element_type="f16"/>
			<output>
				<port id="0" precision="FP16">
					<dim>1</dim>
					<dim>16</dim>
					<dim>1</dim>
					<dim>1</dim>
				</port>
			</output>
		</layer>
		<layer id="23" name="Reshape_2945107502/restored_convert" type="Convert" version="opset1">
			<data destination_type="f32"/>
			<rt_info>
				<attribute name="decompression" version="0"/>
			</rt_info>
			<input>
				<port id="0">
					<dim>1</dim>
					<dim>16</dim>
					<dim>1</dim>
					<dim>1</dim>
				</port>
			</input>
			<output>
				<port id="1" precision="FP32">
					<dim>1</dim>
					<dim>16</dim>
					<dim>1</dim>
					<dim>1</dim>
				</port>
			</output>
		</layer>
		<layer id="24" name="274" type="Add" version="opset1">
			<data auto_broadcast="numpy"/>
			<input>
				<port id="0">
					<dim>1</dim>
					<dim>16</dim>
					<dim>80</dim>
					<dim>40</dim>
				</port>
				<port id="1">
					<dim>1</dim>
					<dim>16</dim>
					<dim>1</dim>
					<dim>1</dim>
				</port>
			</input>
			<output>
				<port id="2" precision="FP32" names="274">
					<dim>1</dim>
					<dim>16</dim>
					<dim>80</dim>
					<dim>40</dim>
				</port>
			</output>
		</layer>
		<layer id="25" name="275/fq_input_0" type="FakeQuantize" version="opset1">
			<data levels="256" auto_broadcast="numpy"/>
			<input>
				<port id="0">
					<dim>1</dim>
					<dim>16</dim>
					<dim>80</dim>
					<dim>40</dim>
				</port>
				<port id="1"/>
				<port id="2"/>
				<port id="3"/>
				<port id="4"/>
			</input>
			<output>
				<port id="5" precision="FP32">
					<dim>1</dim>
					<dim>16</dim>
					<dim>80</dim>
					<dim>40</dim>
				</port>
			</output>
		</layer>
		<layer id="26" name="275/fq_weights_1/scale1027914815" type="Const" version="opset1">
			<data offset="2470" size="4" shape="1,1,1,1" element_type="f32"/>
			<output>
				<port id="0" precision="FP32">
					<dim>1</dim>
					<dim>1</dim>
					<dim>1</dim>
					<dim>1</dim>
				</port>
			</output>
		</layer>
		<layer id="27" name="Constant_96515137503/restored_convert/quantized1027113729" type="Const" version="opset1">
			<data offset="2474" size="1" shape="1,1,1,1" element_type="i8"/>
			<output>
				<port id="0" precision="I8">
					<dim>1</dim>
					<dim>1</dim>
					<dim>1</dim>
					<dim>1</dim>
				</port>
			</output>
		</layer>
		<layer id="28" name="Constant_96515137503/restored_convert/quantized/to_f32" type="Convert" version="opset1">
			<data destination_type="f32"/>
			<input>
				<port id="0">
					<dim>1</dim>
					<dim>1</dim>
					<dim>1</dim>
					<dim>1</dim>
				</port>
			</input>
			<output>
				<port id="1" precision="FP32">
					<dim>1</dim>
					<dim>1</dim>
					<dim>1</dim>
					<dim>1</dim>
				</port>
			</output>
		</layer>
		<layer id="29" name="275/fq_weights_1/mulpiply_by_scale" type="Multiply" version="opset1">
			<data auto_broadcast="numpy"/>
			<input>
				<port id="0">
					<dim>1</dim>
					<dim>1</dim>
					<dim>1</dim>
					<dim>1</dim>
				</port>
				<port id="1">
					<dim>1</dim>
					<dim>1</dim>
					<dim>1</dim>
					<dim>1</dim>
				</port>
			</input>
			<output>
				<port id="2" precision="FP32">
					<dim>1</dim>
					<dim>1</dim>
					<dim>1</dim>
					<dim>1</dim>
				</port>
			</output>
		</layer>
		<layer id="30" name="275" type="Multiply" version="opset1">
			<data auto_broadcast="numpy"/>
			<input>
				<port id="0">
					<dim>1</dim>
					<dim>16</dim>
					<dim>80</dim>
					<dim>40</dim>
				</port>
				<port id="1">
					<dim>1</dim>
					<dim>1</dim>
					<dim>1</dim>
					<dim>1</dim>
				</port>
			</input>
			<output>
				<port id="2" precision="FP32" names="275">
					<dim>1</dim>
					<dim>16</dim>
					<dim>80</dim>
					<dim>40</dim>
				</port>
			</output>
		</layer>
		<layer id="31" name="276/fq_input_1" type="FakeQuantize" version="opset1">
			<data levels="256" auto_broadcast="numpy"/>
			<input>
				<port id="0">
					<dim>1</dim>
					<dim>16</dim>
					<dim>80</dim>
					<dim>40</dim>
				</port>
				<port id="1"/>
				<port id="2"/>
				<port id="3"/>
				<port id="4"/>
			</input>
			<output>
				<port id="5" precision="FP32">
					<dim>1</dim>
					<dim>16</dim>
					<dim>80</dim>
					<dim>40</dim>
				</port>
			</output>
		</layer>
		<layer id="32" name="276" type="Concat" version="opset1">
			<data axis="1"/>
			<input>
				<port id="0">
					<dim>1</dim>
					<dim>16</dim>
					<dim>80</dim>
					<dim>40</dim>
				</port>
				<port id="1">
					<dim>1</dim>
					<dim>16</dim>
					<dim>80</dim>
					<dim>40</dim>
				</port>
			</input>
			<output>
				<port id="2" precision="FP32" names="276">
					<dim>1</dim>
					<dim>32</dim>
					<dim>80</dim>
					<dim>40</dim>
				</port>
			</output>
		</layer>
		<layer id="33" name="Constant_435351714707" type="Const" version="opset1">
			<data offset="2475" size="64" shape="1,32,1,1" element_type="f16"/>
			<output>
				<port id="0" precision="FP16">
					<dim>1</dim>
					<dim>32</dim>
					<dim>1</dim>
					<dim>1</dim>
				</port>
			</output>
		</layer>
		<layer id="34" name="Constant_43535177504/restored_convert" type="Convert" version="opset1">
			<data destination_type="f32"/>
			<rt_info>
				<attribute name="decompression" version="0"/>
			</rt_info>
			<input>
				<port id="0">
					<dim>1</dim>
					<dim>32</dim>
					<dim>1</dim>
					<dim>1</dim>
				</port>
			</input>
			<output>
				<port id="1" precision="FP32">
					<dim>1</dim>
					<dim>32</dim>
					<dim>1</dim>
					<dim>1</dim>
				</port>
			</output>
		</layer>
		<layer id="35" name="Multiply_8907" type="Multiply" version="opset1">
			<data auto_broadcast="numpy"/>
			<input>
				<port id="0">
					<dim>1</dim>
					<dim>32</dim>
					<dim>80</dim>
					<dim>40</dim>
				</port>
				<port id="1">
					<dim>1</dim>
					<dim>32</dim>
					<dim>1</dim>
					<dim>1</dim>
				</port>
			</input>
			<output>
				<port id="2" precision="FP32">
					<dim>1</dim>
					<dim>32</dim>
					<dim>80</dim>
					<dim>40</dim>
				</port>
			</output>
		</layer>
		<layer id="36" name="Constant_891252014038" type="Const" version="opset1">
			<data offset="2539" size="64" shape="1,32,1,1" element_type="f16"/>
			<output>
				<port id="0" precision="FP16">
					<dim>1</dim>
					<dim>32</dim>
					<dim>1</dim>
					<dim>1</dim>
				</port>
			</output>
		</layer>
		<layer id="37" name="Constant_89125207505/restored_convert" type="Convert" version="opset1">
			<data destination_type="f32"/>
			<rt_info>
				<attribute name="decompression" version="0"/>
			</rt_info>
			<input>
				<port id="0">
					<dim>1</dim>
					<dim>32</dim>
					<dim>1</dim>
					<dim>1</dim>
				</port>
			</input>
			<output>
				<port id="1" precision="FP32">
					<dim>1</dim>
					<dim>32</dim>
					<dim>1</dim>
					<dim>1</dim>
				</port>
			</output>
		</layer>
		<layer id="38" name="277" type="Add" version="opset1">
			<data auto_broadcast="numpy"/>
			<input>
				<port id="0">
					<dim>1</dim>
					<dim>32</dim>
					<dim>80</dim>
					<dim>40</dim>
				</port>
				<port id="1">
					<dim>1</dim>
					<dim>32</dim>
					<dim>1</dim>
					<dim>1</dim>
				</port>
			</input>
			<output>
				<port id="2" precision="FP32" names="277">
					<dim>1</dim>
					<dim>32</dim>
					<dim>80</dim>
					<dim>40</dim>
				</port>
			</output>
		</layer>
		<layer id="39" name="278" type="MaxPool" version="opset8">
			<data strides="2,2" kernel="3,3" pads_begin="1,1" pads_end="1,1" rounding_type="floor" auto_pad="explicit" dilations="1,1" axis="0" index_element_type="i64"/>
			<input>
				<port id="0">
					<dim>1</dim>
					<dim>32</dim>
					<dim>80</dim>
					<dim>40</dim>
				</port>
			</input>
			<output>
				<port id="1" precision="FP32" names="278">
					<dim>1</dim>
					<dim>32</dim>
					<dim>40</dim>
					<dim>20</dim>
				</port>
				<port id="2" precision="FP32">
					<dim>1</dim>
					<dim>32</dim>
					<dim>40</dim>
					<dim>20</dim>
					<rt_info/>
				</port>
			</output>
		</layer>
		<layer id="41" name="4161416514740" type="Const" version="opset1">
			<data offset="2603" size="4" shape="" element_type="f32"/>
			<output>
				<port id="0" precision="FP32"/>
			</output>
		</layer>
		<layer id="42" name="4162416613651" type="Const" version="opset1">
			<data offset="2607" size="4" shape="" element_type="f32"/>
			<output>
				<port id="0" precision="FP32"/>
			</output>
		</layer>
		<layer id="43" name="4163416713777" type="Const" version="opset1">
			<data offset="2603" size="4" shape="" element_type="f32"/>
			<output>
				<port id="0" precision="FP32"/>
			</output>
		</layer>
		<layer id="44" name="4164416814236" type="Const" version="opset1">
			<data offset="2607" size="4" shape="" element_type="f32"/>
			<output>
				<port id="0" precision="FP32"/>
			</output>
		</layer>
		<layer id="45" name="1909191314104" type="Const" version="opset1">
			<data offset="2611" size="4" shape="" element_type="f32"/>
			<output>
				<port id="0" precision="FP32"/>
			</output>
		</layer>
		<layer id="46" name="1910191415112" type="Const" version="opset1">
			<data offset="2615" size="4" shape="" element_type="f32"/>
			<output>
				<port id="0" precision="FP32"/>
			</output>
		</layer>
		<layer id="47" name="1911191513573" type="Const" version="opset1">
			<data offset="2611" size="4" shape="" element_type="f32"/>
			<output>
				<port id="0" precision="FP32"/>
			</output>
		</layer>
		<layer id="48" name="1912191614017" type="Const" version="opset1">
			<data offset="2615" size="4" shape="" element_type="f32"/>
			<output>
				<port id="0" precision="FP32"/>
			</output>
		</layer>
		<layer id="49" name="1889189314779" type="Const" version="opset1">
			<data offset="2603" size="4" shape="" element_type="f32"/>
			<output>
				<port id="0" precision="FP32"/>
			</output>
		</layer>
		<layer id="50" name="1890189413783" type="Const" version="opset1">
			<data offset="2619" size="4" shape="" element_type="f32"/>
			<output>
				<port id="0" precision="FP32"/>
			</output>
		</layer>
		<layer id="51" name="1891189513741" type="Const" version="opset1">
			<data offset="2603" size="4" shape="" element_type="f32"/>
			<output>
				<port id="0" precision="FP32"/>
			</output>
		</layer>
		<layer id="52" name="1892189614080" type="Const" version="opset1">
			<data offset="2619" size="4" shape="" element_type="f32"/>
			<output>
				<port id="0" precision="FP32"/>
			</output>
		</layer>
		<layer id="53" name="4151415515025" type="Const" version="opset1">
			<data offset="2623" size="4" shape="" element_type="f32"/>
			<output>
				<port id="0" precision="FP32"/>
			</output>
		</layer>
		<layer id="54" name="4152415615214" type="Const" version="opset1">
			<data offset="2627" size="4" shape="" element_type="f32"/>
			<output>
				<port id="0" precision="FP32"/>
			</output>
		</layer>
		<layer id="55" name="4153415715040" type="Const" version="opset1">
			<data offset="2623" size="4" shape="" element_type="f32"/>
			<output>
				<port id="0" precision="FP32"/>
			</output>
		</layer>
		<layer id="56" name="4154415815028" type="Const" version="opset1">
			<data offset="2627" size="4" shape="" element_type="f32"/>
			<output>
				<port id="0" precision="FP32"/>
			</output>
		</layer>
		<layer id="57" name="1669167313552" type="Const" version="opset1">
			<data offset="2623" size="4" shape="" element_type="f32"/>
			<output>
				<port id="0" precision="FP32"/>
			</output>
		</layer>
		<layer id="58" name="1670167414542" type="Const" version="opset1">
			<data offset="2627" size="4" shape="" element_type="f32"/>
			<output>
				<port id="0" precision="FP32"/>
			</output>
		</layer>
		<layer id="59" name="1671167515160" type="Const" version="opset1">
			<data offset="2623" size="4" shape="" element_type="f32"/>
			<output>
				<port id="0" precision="FP32"/>
			</output>
		</layer>
		<layer id="60" name="1672167614602" type="Const" version="opset1">
			<data offset="2627" size="4" shape="" element_type="f32"/>
			<output>
				<port id="0" precision="FP32"/>
			</output>
		</layer>
		<layer id="61" name="3189319314992" type="Const" version="opset1">
			<data offset="2603" size="4" shape="" element_type="f32"/>
			<output>
				<port id="0" precision="FP32"/>
			</output>
		</layer>
		<layer id="62" name="3190319413645" type="Const" version="opset1">
			<data offset="2631" size="4" shape="" element_type="f32"/>
			<output>
				<port id="0" precision="FP32"/>
			</output>
		</layer>
		<layer id="63" name="3191319514545" type="Const" version="opset1">
			<data offset="2603" size="4" shape="" element_type="f32"/>
			<output>
				<port id="0" precision="FP32"/>
			</output>
		</layer>
		<layer id="64" name="3192319615073" type="Const" version="opset1">
			<data offset="2631" size="4" shape="" element_type="f32"/>
			<output>
				<port id="0" precision="FP32"/>
			</output>
		</layer>
		<layer id="65" name="3129313313909" type="Const" version="opset1">
			<data offset="2603" size="4" shape="" element_type="f32"/>
			<output>
				<port id="0" precision="FP32"/>
			</output>
		</layer>
		<layer id="66" name="3130313414365" type="Const" version="opset1">
			<data offset="2635" size="4" shape="" element_type="f32"/>
			<output>
				<port id="0" precision="FP32"/>
			</output>
		</layer>
		<layer id="67" name="3131313514086" type="Const" version="opset1">
			<data offset="2603" size="4" shape="" element_type="f32"/>
			<output>
				<port id="0" precision="FP32"/>
			</output>
		</layer>
		<layer id="68" name="3132313615187" type="Const" version="opset1">
			<data offset="2635" size="4" shape="" element_type="f32"/>
			<output>
				<port id="0" precision="FP32"/>
			</output>
		</layer>
		<layer id="69" name="2179218313963" type="Const" version="opset1">
			<data offset="2639" size="4" shape="" element_type="f32"/>
			<output>
				<port id="0" precision="FP32"/>
			</output>
		</layer>
		<layer id="70" name="2180218414434" type="Const" version="opset1">
			<data offset="2643" size="4" shape="" element_type="f32"/>
			<output>
				<port id="0" precision="FP32"/>
			</output>
		</layer>
		<layer id="71" name="2181218514611" type="Const" version="opset1">
			<data offset="2639" size="4" shape="" element_type="f32"/>
			<output>
				<port id="0" precision="FP32"/>
			</output>
		</layer>
		<layer id="72" name="2182218615010" type="Const" version="opset1">
			<data offset="2643" size="4" shape="" element_type="f32"/>
			<output>
				<port id="0" precision="FP32"/>
			</output>
		</layer>
		<layer id="73" name="3019302314929" type="Const" version="opset1">
			<data offset="2603" size="4" shape="" element_type="f32"/>
			<output>
				<port id="0" precision="FP32"/>
			</output>
		</layer>
		<layer id="74" name="3020302413924" type="Const" version="opset1">
			<data offset="2647" size="4" shape="" element_type="f32"/>
			<output>
				<port id="0" precision="FP32"/>
			</output>
		</layer>
		<layer id="75" name="3021302514227" type="Const" version="opset1">
			<data offset="2603" size="4" shape="" element_type="f32"/>
			<output>
				<port id="0" precision="FP32"/>
			</output>
		</layer>
		<layer id="76" name="3022302615205" type="Const" version="opset1">
			<data offset="2647" size="4" shape="" element_type="f32"/>
			<output>
				<port id="0" precision="FP32"/>
			</output>
		</layer>
		<layer id="77" name="4131413514266" type="Const" version="opset1">
			<data offset="2651" size="4" shape="" element_type="f32"/>
			<output>
				<port id="0" precision="FP32"/>
			</output>
		</layer>
		<layer id="78" name="4132413615235" type="Const" version="opset1">
			<data offset="2655" size="4" shape="" element_type="f32"/>
			<output>
				<port id="0" precision="FP32"/>
			</output>
		</layer>
		<layer id="79" name="4133413713582" type="Const" version="opset1">
			<data offset="2651" size="4" shape="" element_type="f32"/>
			<output>
				<port id="0" precision="FP32"/>
			</output>
		</layer>
		<layer id="80" name="4134413814617" type="Const" version="opset1">
			<data offset="2655" size="4" shape="" element_type="f32"/>
			<output>
				<port id="0" precision="FP32"/>
			</output>
		</layer>
		<layer id="81" name="1739174314257" type="Const" version="opset1">
			<data offset="2651" size="4" shape="" element_type="f32"/>
			<output>
				<port id="0" precision="FP32"/>
			</output>
		</layer>
		<layer id="82" name="1740174413699" type="Const" version="opset1">
			<data offset="2655" size="4" shape="" element_type="f32"/>
			<output>
				<port id="0" precision="FP32"/>
			</output>
		</layer>
		<layer id="83" name="1741174514800" type="Const" version="opset1">
			<data offset="2651" size="4" shape="" element_type="f32"/>
			<output>
				<port id="0" precision="FP32"/>
			</output>
		</layer>
		<layer id="84" name="1742174614485" type="Const" version="opset1">
			<data offset="2655" size="4" shape="" element_type="f32"/>
			<output>
				<port id="0" precision="FP32"/>
			</output>
		</layer>
		<layer id="85" name="2539254314185" type="Const" version="opset1">
			<data offset="2603" size="4" shape="" element_type="f32"/>
			<output>
				<port id="0" precision="FP32"/>
			</output>
		</layer>
		<layer id="86" name="2540254414377" type="Const" version="opset1">
			<data offset="2659" size="4" shape="" element_type="f32"/>
			<output>
				<port id="0" precision="FP32"/>
			</output>
		</layer>
		<layer id="87" name="2541254514089" type="Const" version="opset1">
			<data offset="2603" size="4" shape="" element_type="f32"/>
			<output>
				<port id="0" precision="FP32"/>
			</output>
		</layer>
		<layer id="88" name="2542254613681" type="Const" version="opset1">
			<data offset="2659" size="4" shape="" element_type="f32"/>
			<output>
				<port id="0" precision="FP32"/>
			</output>
		</layer>
		<layer id="89" name="2959296314926" type="Const" version="opset1">
			<data offset="2603" size="4" shape="" element_type="f32"/>
			<output>
				<port id="0" precision="FP32"/>
			</output>
		</layer>
		<layer id="90" name="2960296414719" type="Const" version="opset1">
			<data offset="2663" size="4" shape="" element_type="f32"/>
			<output>
				<port id="0" precision="FP32"/>
			</output>
		</layer>
		<layer id="91" name="2961296514278" type="Const" version="opset1">
			<data offset="2603" size="4" shape="" element_type="f32"/>
			<output>
				<port id="0" precision="FP32"/>
			</output>
		</layer>
		<layer id="92" name="2962296614098" type="Const" version="opset1">
			<data offset="2663" size="4" shape="" element_type="f32"/>
			<output>
				<port id="0" precision="FP32"/>
			</output>
		</layer>
		<layer id="93" name="2019202314293" type="Const" version="opset1">
			<data offset="2667" size="4" shape="" element_type="f32"/>
			<output>
				<port id="0" precision="FP32"/>
			</output>
		</layer>
		<layer id="94" name="2020202415184" type="Const" version="opset1">
			<data offset="2671" size="4" shape="" element_type="f32"/>
			<output>
				<port id="0" precision="FP32"/>
			</output>
		</layer>
		<layer id="95" name="2021202514107" type="Const" version="opset1">
			<data offset="2667" size="4" shape="" element_type="f32"/>
			<output>
				<port id="0" precision="FP32"/>
			</output>
		</layer>
		<layer id="96" name="2022202613525" type="Const" version="opset1">
			<data offset="2671" size="4" shape="" element_type="f32"/>
			<output>
				<port id="0" precision="FP32"/>
			</output>
		</layer>
		<layer id="97" name="2219222314782" type="Const" version="opset1">
			<data offset="2603" size="4" shape="" element_type="f32"/>
			<output>
				<port id="0" precision="FP32"/>
			</output>
		</layer>
		<layer id="98" name="2220222415115" type="Const" version="opset1">
			<data offset="2675" size="4" shape="" element_type="f32"/>
			<output>
				<port id="0" precision="FP32"/>
			</output>
		</layer>
		<layer id="99" name="2221222515055" type="Const" version="opset1">
			<data offset="2603" size="4" shape="" element_type="f32"/>
			<output>
				<port id="0" precision="FP32"/>
			</output>
		</layer>
		<layer id="100" name="2222222614848" type="Const" version="opset1">
			<data offset="2675" size="4" shape="" element_type="f32"/>
			<output>
				<port id="0" precision="FP32"/>
			</output>
		</layer>
		<layer id="101" name="4111411513867" type="Const" version="opset1">
			<data offset="2679" size="4" shape="" element_type="f32"/>
			<output>
				<port id="0" precision="FP32"/>
			</output>
		</layer>
		<layer id="102" name="4112411614704" type="Const" version="opset1">
			<data offset="2683" size="4" shape="" element_type="f32"/>
			<output>
				<port id="0" precision="FP32"/>
			</output>
		</layer>
		<layer id="103" name="4113411713585" type="Const" version="opset1">
			<data offset="2679" size="4" shape="" element_type="f32"/>
			<output>
				<port id="0" precision="FP32"/>
			</output>
		</layer>
		<layer id="104" name="4114411815229" type="Const" version="opset1">
			<data offset="2683" size="4" shape="" element_type="f32"/>
			<output>
				<port id="0" precision="FP32"/>
			</output>
		</layer>
		<layer id="105" name="2199220313834" type="Const" version="opset1">
			<data offset="2679" size="4" shape="" element_type="f32"/>
			<output>
				<port id="0" precision="FP32"/>
			</output>
		</layer>
		<layer id="106" name="2200220413612" type="Const" version="opset1">
			<data offset="2683" size="4" shape="" element_type="f32"/>
			<output>
				<port id="0" precision="FP32"/>
			</output>
		</layer>
		<layer id="107" name="2201220514530" type="Const" version="opset1">
			<data offset="2679" size="4" shape="" element_type="f32"/>
			<output>
				<port id="0" precision="FP32"/>
			</output>
		</layer>
		<layer id="108" name="2202220614632" type="Const" version="opset1">
			<data offset="2683" size="4" shape="" element_type="f32"/>
			<output>
				<port id="0" precision="FP32"/>
			</output>
		</layer>
		<layer id="109" name="2779278314242" type="Const" version="opset1">
			<data offset="2603" size="4" shape="" element_type="f32"/>
			<output>
				<port id="0" precision="FP32"/>
			</output>
		</layer>
		<layer id="110" name="2780278413954" type="Const" version="opset1">
			<data offset="2687" size="4" shape="" element_type="f32"/>
			<output>
				<port id="0" precision="FP32"/>
			</output>
		</layer>
		<layer id="111" name="2781278514722" type="Const" version="opset1">
			<data offset="2603" size="4" shape="" element_type="f32"/>
			<output>
				<port id="0" precision="FP32"/>
			</output>
		</layer>
		<layer id="112" name="2782278614482" type="Const" version="opset1">
			<data offset="2687" size="4" shape="" element_type="f32"/>
			<output>
				<port id="0" precision="FP32"/>
			</output>
		</layer>
		<layer id="113" name="1929193313948" type="Const" version="opset1">
			<data offset="2603" size="4" shape="" element_type="f32"/>
			<output>
				<port id="0" precision="FP32"/>
			</output>
		</layer>
		<layer id="114" name="1930193414842" type="Const" version="opset1">
			<data offset="2691" size="4" shape="" element_type="f32"/>
			<output>
				<port id="0" precision="FP32"/>
			</output>
		</layer>
		<layer id="115" name="1931193513993" type="Const" version="opset1">
			<data offset="2603" size="4" shape="" element_type="f32"/>
			<output>
				<port id="0" precision="FP32"/>
			</output>
		</layer>
		<layer id="116" name="1932193614011" type="Const" version="opset1">
			<data offset="2691" size="4" shape="" element_type="f32"/>
			<output>
				<port id="0" precision="FP32"/>
			</output>
		</layer>
		<layer id="117" name="2629263313747" type="Const" version="opset1">
			<data offset="2695" size="4" shape="" element_type="f32"/>
			<output>
				<port id="0" precision="FP32"/>
			</output>
		</layer>
		<layer id="118" name="2630263413771" type="Const" version="opset1">
			<data offset="2699" size="4" shape="" element_type="f32"/>
			<output>
				<port id="0" precision="FP32"/>
			</output>
		</layer>
		<layer id="119" name="2631263515046" type="Const" version="opset1">
			<data offset="2695" size="4" shape="" element_type="f32"/>
			<output>
				<port id="0" precision="FP32"/>
			</output>
		</layer>
		<layer id="120" name="2632263614875" type="Const" version="opset1">
			<data offset="2699" size="4" shape="" element_type="f32"/>
			<output>
				<port id="0" precision="FP32"/>
			</output>
		</layer>
		<layer id="121" name="2879288313627" type="Const" version="opset1">
			<data offset="2603" size="4" shape="" element_type="f32"/>
			<output>
				<port id="0" precision="FP32"/>
			</output>
		</layer>
		<layer id="122" name="2880288414272" type="Const" version="opset1">
			<data offset="2703" size="4" shape="" element_type="f32"/>
			<output>
				<port id="0" precision="FP32"/>
			</output>
		</layer>
		<layer id="123" name="2881288514263" type="Const" version="opset1">
			<data offset="2603" size="4" shape="" element_type="f32"/>
			<output>
				<port id="0" precision="FP32"/>
			</output>
		</layer>
		<layer id="124" name="2882288614806" type="Const" version="opset1">
			<data offset="2703" size="4" shape="" element_type="f32"/>
			<output>
				<port id="0" precision="FP32"/>
			</output>
		</layer>
		<layer id="125" name="4091409514920" type="Const" version="opset1">
			<data offset="2707" size="4" shape="" element_type="f32"/>
			<output>
				<port id="0" precision="FP32"/>
			</output>
		</layer>
		<layer id="126" name="4092409614233" type="Const" version="opset1">
			<data offset="2711" size="4" shape="" element_type="f32"/>
			<output>
				<port id="0" precision="FP32"/>
			</output>
		</layer>
		<layer id="127" name="4093409713933" type="Const" version="opset1">
			<data offset="2707" size="4" shape="" element_type="f32"/>
			<output>
				<port id="0" precision="FP32"/>
			</output>
		</layer>
		<layer id="128" name="4094409814188" type="Const" version="opset1">
			<data offset="2711" size="4" shape="" element_type="f32"/>
			<output>
				<port id="0" precision="FP32"/>
			</output>
		</layer>
		<layer id="129" name="1589159314914" type="Const" version="opset1">
			<data offset="2707" size="4" shape="" element_type="f32"/>
			<output>
				<port id="0" precision="FP32"/>
			</output>
		</layer>
		<layer id="130" name="1590159415076" type="Const" version="opset1">
			<data offset="2711" size="4" shape="" element_type="f32"/>
			<output>
				<port id="0" precision="FP32"/>
			</output>
		</layer>
		<layer id="131" name="1591159514356" type="Const" version="opset1">
			<data offset="2707" size="4" shape="" element_type="f32"/>
			<output>
				<port id="0" precision="FP32"/>
			</output>
		</layer>
		<layer id="132" name="1592159614287" type="Const" version="opset1">
			<data offset="2711" size="4" shape="" element_type="f32"/>
			<output>
				<port id="0" precision="FP32"/>
			</output>
		</layer>
		<layer id="133" name="2999300315226" type="Const" version="opset1">
			<data offset="2603" size="4" shape="" element_type="f32"/>
			<output>
				<port id="0" precision="FP32"/>
			</output>
		</layer>
		<layer id="134" name="3000300413999" type="Const" version="opset1">
			<data offset="2715" size="4" shape="" element_type="f32"/>
			<output>
				<port id="0" precision="FP32"/>
			</output>
		</layer>
		<layer id="135" name="3001300514656" type="Const" version="opset1">
			<data offset="2603" size="4" shape="" element_type="f32"/>
			<output>
				<port id="0" precision="FP32"/>
			</output>
		</layer>
		<layer id="136" name="3002300614083" type="Const" version="opset1">
			<data offset="2715" size="4" shape="" element_type="f32"/>
			<output>
				<port id="0" precision="FP32"/>
			</output>
		</layer>
		<layer id="137" name="2559256314887" type="Const" version="opset1">
			<data offset="2603" size="4" shape="" element_type="f32"/>
			<output>
				<port id="0" precision="FP32"/>
			</output>
		</layer>
		<layer id="138" name="2560256414770" type="Const" version="opset1">
			<data offset="2719" size="4" shape="" element_type="f32"/>
			<output>
				<port id="0" precision="FP32"/>
			</output>
		</layer>
		<layer id="139" name="2561256513543" type="Const" version="opset1">
			<data offset="2603" size="4" shape="" element_type="f32"/>
			<output>
				<port id="0" precision="FP32"/>
			</output>
		</layer>
		<layer id="140" name="2562256614410" type="Const" version="opset1">
			<data offset="2719" size="4" shape="" element_type="f32"/>
			<output>
				<port id="0" precision="FP32"/>
			</output>
		</layer>
		<layer id="141" name="2469247313609" type="Const" version="opset1">
			<data offset="2723" size="4" shape="" element_type="f32"/>
			<output>
				<port id="0" precision="FP32"/>
			</output>
		</layer>
		<layer id="142" name="2470247414620" type="Const" version="opset1">
			<data offset="2727" size="4" shape="" element_type="f32"/>
			<output>
				<port id="0" precision="FP32"/>
			</output>
		</layer>
		<layer id="143" name="2471247514464" type="Const" version="opset1">
			<data offset="2723" size="4" shape="" element_type="f32"/>
			<output>
				<port id="0" precision="FP32"/>
			</output>
		</layer>
		<layer id="144" name="2472247614122" type="Const" version="opset1">
			<data offset="2727" size="4" shape="" element_type="f32"/>
			<output>
				<port id="0" precision="FP32"/>
			</output>
		</layer>
		<layer id="145" name="3089309314524" type="Const" version="opset1">
			<data offset="2603" size="4" shape="" element_type="f32"/>
			<output>
				<port id="0" precision="FP32"/>
			</output>
		</layer>
		<layer id="146" name="3090309414215" type="Const" version="opset1">
			<data offset="2731" size="4" shape="" element_type="f32"/>
			<output>
				<port id="0" precision="FP32"/>
			</output>
		</layer>
		<layer id="147" name="3091309514896" type="Const" version="opset1">
			<data offset="2603" size="4" shape="" element_type="f32"/>
			<output>
				<port id="0" precision="FP32"/>
			</output>
		</layer>
		<layer id="148" name="3092309615130" type="Const" version="opset1">
			<data offset="2731" size="4" shape="" element_type="f32"/>
			<output>
				<port id="0" precision="FP32"/>
			</output>
		</layer>
		<layer id="149" name="4071407514479" type="Const" version="opset1">
			<data offset="2735" size="4" shape="" element_type="f32"/>
			<output>
				<port id="0" precision="FP32"/>
			</output>
		</layer>
		<layer id="150" name="4072407613516" type="Const" version="opset1">
			<data offset="2739" size="4" shape="" element_type="f32"/>
			<output>
				<port id="0" precision="FP32"/>
			</output>
		</layer>
		<layer id="151" name="4073407714776" type="Const" version="opset1">
			<data offset="2735" size="4" shape="" element_type="f32"/>
			<output>
				<port id="0" precision="FP32"/>
			</output>
		</layer>
		<layer id="152" name="4074407814629" type="Const" version="opset1">
			<data offset="2739" size="4" shape="" element_type="f32"/>
			<output>
				<port id="0" precision="FP32"/>
			</output>
		</layer>
		<layer id="153" name="2279228314569" type="Const" version="opset1">
			<data offset="2735" size="4" shape="" element_type="f32"/>
			<output>
				<port id="0" precision="FP32"/>
			</output>
		</layer>
		<layer id="154" name="2280228414803" type="Const" version="opset1">
			<data offset="2739" size="4" shape="" element_type="f32"/>
			<output>
				<port id="0" precision="FP32"/>
			</output>
		</layer>
		<layer id="155" name="2281228514005" type="Const" version="opset1">
			<data offset="2735" size="4" shape="" element_type="f32"/>
			<output>
				<port id="0" precision="FP32"/>
			</output>
		</layer>
		<layer id="156" name="2282228614209" type="Const" version="opset1">
			<data offset="2739" size="4" shape="" element_type="f32"/>
			<output>
				<port id="0" precision="FP32"/>
			</output>
		</layer>
		<layer id="157" name="2919292314347" type="Const" version="opset1">
			<data offset="2603" size="4" shape="" element_type="f32"/>
			<output>
				<port id="0" precision="FP32"/>
			</output>
		</layer>
		<layer id="158" name="2920292413654" type="Const" version="opset1">
			<data offset="2743" size="4" shape="" element_type="f32"/>
			<output>
				<port id="0" precision="FP32"/>
			</output>
		</layer>
		<layer id="159" name="2921292515085" type="Const" version="opset1">
			<data offset="2603" size="4" shape="" element_type="f32"/>
			<output>
				<port id="0" precision="FP32"/>
			</output>
		</layer>
		<layer id="160" name="2922292615064" type="Const" version="opset1">
			<data offset="2743" size="4" shape="" element_type="f32"/>
			<output>
				<port id="0" precision="FP32"/>
			</output>
		</layer>
		<layer id="161" name="1959196314173" type="Const" version="opset1">
			<data offset="2603" size="4" shape="" element_type="f32"/>
			<output>
				<port id="0" precision="FP32"/>
			</output>
		</layer>
		<layer id="162" name="1960196414371" type="Const" version="opset1">
			<data offset="2747" size="4" shape="" element_type="f32"/>
			<output>
				<port id="0" precision="FP32"/>
			</output>
		</layer>
		<layer id="163" name="1961196515151" type="Const" version="opset1">
			<data offset="2603" size="4" shape="" element_type="f32"/>
			<output>
				<port id="0" precision="FP32"/>
			</output>
		</layer>
		<layer id="164" name="1962196614299" type="Const" version="opset1">
			<data offset="2747" size="4" shape="" element_type="f32"/>
			<output>
				<port id="0" precision="FP32"/>
			</output>
		</layer>
		<layer id="165" name="1799180313546" type="Const" version="opset1">
			<data offset="2751" size="4" shape="" element_type="f32"/>
			<output>
				<port id="0" precision="FP32"/>
			</output>
		</layer>
		<layer id="166" name="1800180414374" type="Const" version="opset1">
			<data offset="2755" size="4" shape="" element_type="f32"/>
			<output>
				<port id="0" precision="FP32"/>
			</output>
		</layer>
		<layer id="167" name="1801180514137" type="Const" version="opset1">
			<data offset="2751" size="4" shape="" element_type="f32"/>
			<output>
				<port id="0" precision="FP32"/>
			</output>
		</layer>
		<layer id="168" name="1802180615133" type="Const" version="opset1">
			<data offset="2755" size="4" shape="" element_type="f32"/>
			<output>
				<port id="0" precision="FP32"/>
			</output>
		</layer>
		<layer id="169" name="1699170314773" type="Const" version="opset1">
			<data offset="2603" size="4" shape="" element_type="f32"/>
			<output>
				<port id="0" precision="FP32"/>
			</output>
		</layer>
		<layer id="170" name="1700170413534" type="Const" version="opset1">
			<data offset="2759" size="4" shape="" element_type="f32"/>
			<output>
				<port id="0" precision="FP32"/>
			</output>
		</layer>
		<layer id="171" name="1701170514041" type="Const" version="opset1">
			<data offset="2603" size="4" shape="" element_type="f32"/>
			<output>
				<port id="0" precision="FP32"/>
			</output>
		</layer>
		<layer id="172" name="1702170613666" type="Const" version="opset1">
			<data offset="2759" size="4" shape="" element_type="f32"/>
			<output>
				<port id="0" precision="FP32"/>
			</output>
		</layer>
		<layer id="173" name="4051405514734" type="Const" version="opset1">
			<data offset="2763" size="4" shape="" element_type="f32"/>
			<output>
				<port id="0" precision="FP32"/>
			</output>
		</layer>
		<layer id="174" name="4052405614035" type="Const" version="opset1">
			<data offset="2767" size="4" shape="" element_type="f32"/>
			<output>
				<port id="0" precision="FP32"/>
			</output>
		</layer>
		<layer id="175" name="4053405714548" type="Const" version="opset1">
			<data offset="2763" size="4" shape="" element_type="f32"/>
			<output>
				<port id="0" precision="FP32"/>
			</output>
		</layer>
		<layer id="176" name="4054405814665" type="Const" version="opset1">
			<data offset="2767" size="4" shape="" element_type="f32"/>
			<output>
				<port id="0" precision="FP32"/>
			</output>
		</layer>
		<layer id="177" name="2489249314254" type="Const" version="opset1">
			<data offset="2763" size="4" shape="" element_type="f32"/>
			<output>
				<port id="0" precision="FP32"/>
			</output>
		</layer>
		<layer id="178" name="2490249414335" type="Const" version="opset1">
			<data offset="2767" size="4" shape="" element_type="f32"/>
			<output>
				<port id="0" precision="FP32"/>
			</output>
		</layer>
		<layer id="179" name="2491249514878" type="Const" version="opset1">
			<data offset="2763" size="4" shape="" element_type="f32"/>
			<output>
				<port id="0" precision="FP32"/>
			</output>
		</layer>
		<layer id="180" name="2492249614416" type="Const" version="opset1">
			<data offset="2767" size="4" shape="" element_type="f32"/>
			<output>
				<port id="0" precision="FP32"/>
			</output>
		</layer>
		<layer id="181" name="1979198313690" type="Const" version="opset1">
			<data offset="2603" size="4" shape="" element_type="f32"/>
			<output>
				<port id="0" precision="FP32"/>
			</output>
		</layer>
		<layer id="182" name="1980198414470" type="Const" version="opset1">
			<data offset="2771" size="4" shape="" element_type="f32"/>
			<output>
				<port id="0" precision="FP32"/>
			</output>
		</layer>
		<layer id="183" name="1981198513897" type="Const" version="opset1">
			<data offset="2603" size="4" shape="" element_type="f32"/>
			<output>
				<port id="0" precision="FP32"/>
			</output>
		</layer>
		<layer id="184" name="1982198613615" type="Const" version="opset1">
			<data offset="2771" size="4" shape="" element_type="f32"/>
			<output>
				<port id="0" precision="FP32"/>
			</output>
		</layer>
		<layer id="185" name="1609161314395" type="Const" version="opset1">
			<data offset="2603" size="4" shape="" element_type="f32"/>
			<output>
				<port id="0" precision="FP32"/>
			</output>
		</layer>
		<layer id="186" name="1610161414818" type="Const" version="opset1">
			<data offset="2775" size="4" shape="" element_type="f32"/>
			<output>
				<port id="0" precision="FP32"/>
			</output>
		</layer>
		<layer id="187" name="1611161514824" type="Const" version="opset1">
			<data offset="2603" size="4" shape="" element_type="f32"/>
			<output>
				<port id="0" precision="FP32"/>
			</output>
		</layer>
		<layer id="188" name="1612161614101" type="Const" version="opset1">
			<data offset="2775" size="4" shape="" element_type="f32"/>
			<output>
				<port id="0" precision="FP32"/>
			</output>
		</layer>
		<layer id="189" name="2369237313813" type="Const" version="opset1">
			<data offset="2779" size="4" shape="" element_type="f32"/>
			<output>
				<port id="0" precision="FP32"/>
			</output>
		</layer>
		<layer id="190" name="2370237414614" type="Const" version="opset1">
			<data offset="2783" size="4" shape="" element_type="f32"/>
			<output>
				<port id="0" precision="FP32"/>
			</output>
		</layer>
		<layer id="191" name="2371237514995" type="Const" version="opset1">
			<data offset="2779" size="4" shape="" element_type="f32"/>
			<output>
				<port id="0" precision="FP32"/>
			</output>
		</layer>
		<layer id="192" name="2372237615190" type="Const" version="opset1">
			<data offset="2783" size="4" shape="" element_type="f32"/>
			<output>
				<port id="0" precision="FP32"/>
			</output>
		</layer>
		<layer id="193" name="2839284314833" type="Const" version="opset1">
			<data offset="2603" size="4" shape="" element_type="f32"/>
			<output>
				<port id="0" precision="FP32"/>
			</output>
		</layer>
		<layer id="194" name="2840284414701" type="Const" version="opset1">
			<data offset="2787" size="4" shape="" element_type="f32"/>
			<output>
				<port id="0" precision="FP32"/>
			</output>
		</layer>
		<layer id="195" name="2841284513894" type="Const" version="opset1">
			<data offset="2603" size="4" shape="" element_type="f32"/>
			<output>
				<port id="0" precision="FP32"/>
			</output>
		</layer>
		<layer id="196" name="2842284614728" type="Const" version="opset1">
			<data offset="2787" size="4" shape="" element_type="f32"/>
			<output>
				<port id="0" precision="FP32"/>
			</output>
		</layer>
		<layer id="197" name="4031403514245" type="Const" version="opset1">
			<data offset="2791" size="4" shape="" element_type="f32"/>
			<output>
				<port id="0" precision="FP32"/>
			</output>
		</layer>
		<layer id="198" name="4032403615217" type="Const" version="opset1">
			<data offset="2795" size="4" shape="" element_type="f32"/>
			<output>
				<port id="0" precision="FP32"/>
			</output>
		</layer>
		<layer id="199" name="4033403713810" type="Const" version="opset1">
			<data offset="2791" size="4" shape="" element_type="f32"/>
			<output>
				<port id="0" precision="FP32"/>
			</output>
		</layer>
		<layer id="200" name="4034403813888" type="Const" version="opset1">
			<data offset="2795" size="4" shape="" element_type="f32"/>
			<output>
				<port id="0" precision="FP32"/>
			</output>
		</layer>
		<layer id="201" name="2389239315247" type="Const" version="opset1">
			<data offset="2791" size="4" shape="" element_type="f32"/>
			<output>
				<port id="0" precision="FP32"/>
			</output>
		</layer>
		<layer id="202" name="2390239414851" type="Const" version="opset1">
			<data offset="2795" size="4" shape="" element_type="f32"/>
			<output>
				<port id="0" precision="FP32"/>
			</output>
		</layer>
		<layer id="203" name="2391239515049" type="Const" version="opset1">
			<data offset="2791" size="4" shape="" element_type="f32"/>
			<output>
				<port id="0" precision="FP32"/>
			</output>
		</layer>
		<layer id="204" name="2392239614008" type="Const" version="opset1">
			<data offset="2795" size="4" shape="" element_type="f32"/>
			<output>
				<port id="0" precision="FP32"/>
			</output>
		</layer>
		<layer id="205" name="2689269314638" type="Const" version="opset1">
			<data offset="2603" size="4" shape="" element_type="f32"/>
			<output>
				<port id="0" precision="FP32"/>
			</output>
		</layer>
		<layer id="206" name="2690269413621" type="Const" version="opset1">
			<data offset="2799" size="4" shape="" element_type="f32"/>
			<output>
				<port id="0" precision="FP32"/>
			</output>
		</layer>
		<layer id="207" name="2691269513567" type="Const" version="opset1">
			<data offset="2603" size="4" shape="" element_type="f32"/>
			<output>
				<port id="0" precision="FP32"/>
			</output>
		</layer>
		<layer id="208" name="2692269614437" type="Const" version="opset1">
			<data offset="2799" size="4" shape="" element_type="f32"/>
			<output>
				<port id="0" precision="FP32"/>
			</output>
		</layer>
		<layer id="209" name="3109311313669" type="Const" version="opset1">
			<data offset="2603" size="4" shape="" element_type="f32"/>
			<output>
				<port id="0" precision="FP32"/>
			</output>
		</layer>
		<layer id="210" name="3110311413570" type="Const" version="opset1">
			<data offset="2803" size="4" shape="" element_type="f32"/>
			<output>
				<port id="0" precision="FP32"/>
			</output>
		</layer>
		<layer id="211" name="3111311515244" type="Const" version="opset1">
			<data offset="2603" size="4" shape="" element_type="f32"/>
			<output>
				<port id="0" precision="FP32"/>
			</output>
		</layer>
		<layer id="212" name="3112311614506" type="Const" version="opset1">
			<data offset="2803" size="4" shape="" element_type="f32"/>
			<output>
				<port id="0" precision="FP32"/>
			</output>
		</layer>
		<layer id="213" name="279" type="ReLU" version="opset1">
			<input>
				<port id="0">
					<dim>1</dim>
					<dim>32</dim>
					<dim>40</dim>
					<dim>20</dim>
				</port>
			</input>
			<output>
				<port id="1" precision="FP32" names="279">
					<dim>1</dim>
					<dim>32</dim>
					<dim>40</dim>
					<dim>20</dim>
				</port>
			</output>
		</layer>
		<layer id="214" name="280/WithoutBiases/fq_input_0" type="FakeQuantize" version="opset1">
			<data levels="256" auto_broadcast="numpy"/>
			<input>
				<port id="0">
					<dim>1</dim>
					<dim>32</dim>
					<dim>40</dim>
					<dim>20</dim>
				</port>
				<port id="1"/>
				<port id="2"/>
				<port id="3"/>
				<port id="4"/>
			</input>
			<output>
				<port id="5" precision="FP32">
					<dim>1</dim>
					<dim>32</dim>
					<dim>40</dim>
					<dim>20</dim>
				</port>
			</output>
		</layer>
		<layer id="215" name="280/WithoutBiases/fq_weights_1/scale925914176" type="Const" version="opset1">
			<data offset="2807" size="96" shape="24,1,1,1" element_type="f32"/>
			<output>
				<port id="0" precision="FP32">
					<dim>24</dim>
					<dim>1</dim>
					<dim>1</dim>
					<dim>1</dim>
				</port>
			</output>
		</layer>
		<layer id="216" name="85257506/restored_convert/quantized925113942" type="Const" version="opset1">
			<data offset="2903" size="768" shape="24,32,1,1" element_type="i8"/>
			<output>
				<port id="0" precision="I8">
					<dim>24</dim>
					<dim>32</dim>
					<dim>1</dim>
					<dim>1</dim>
				</port>
			</output>
		</layer>
		<layer id="217" name="85257506/restored_convert/quantized/to_f32" type="Convert" version="opset1">
			<data destination_type="f32"/>
			<input>
				<port id="0">
					<dim>24</dim>
					<dim>32</dim>
					<dim>1</dim>
					<dim>1</dim>
				</port>
			</input>
			<output>
				<port id="1" precision="FP32">
					<dim>24</dim>
					<dim>32</dim>
					<dim>1</dim>
					<dim>1</dim>
				</port>
			</output>
		</layer>
		<layer id="218" name="280/WithoutBiases/fq_weights_1/mulpiply_by_scale" type="Multiply" version="opset1">
			<data auto_broadcast="numpy"/>
			<input>
				<port id="0">
					<dim>24</dim>
					<dim>32</dim>
					<dim>1</dim>
					<dim>1</dim>
				</port>
				<port id="1">
					<dim>24</dim>
					<dim>1</dim>
					<dim>1</dim>
					<dim>1</dim>
				</port>
			</input>
			<output>
				<port id="2" precision="FP32">
					<dim>24</dim>
					<dim>32</dim>
					<dim>1</dim>
					<dim>1</dim>
				</port>
			</output>
		</layer>
		<layer id="219" name="280/WithoutBiases" type="Convolution" version="opset1">
			<data auto_pad="explicit" strides="1,1" dilations="1,1" pads_begin="0,0" pads_end="0,0"/>
			<input>
				<port id="0">
					<dim>1</dim>
					<dim>32</dim>
					<dim>40</dim>
					<dim>20</dim>
				</port>
				<port id="1">
					<dim>24</dim>
					<dim>32</dim>
					<dim>1</dim>
					<dim>1</dim>
				</port>
			</input>
			<output>
				<port id="2" precision="FP32">
					<dim>1</dim>
					<dim>24</dim>
					<dim>40</dim>
					<dim>20</dim>
				</port>
			</output>
		</layer>
		<layer id="220" name="Reshape_34752813642" type="Const" version="opset1">
			<data offset="3671" size="48" shape="1,24,1,1" element_type="f16"/>
			<output>
				<port id="0" precision="FP16">
					<dim>1</dim>
					<dim>24</dim>
					<dim>1</dim>
					<dim>1</dim>
				</port>
			</output>
		</layer>
		<layer id="221" name="Reshape_3475287507/restored_convert" type="Convert" version="opset1">
			<data destination_type="f32"/>
			<rt_info>
				<attribute name="decompression" version="0"/>
			</rt_info>
			<input>
				<port id="0">
					<dim>1</dim>
					<dim>24</dim>
					<dim>1</dim>
					<dim>1</dim>
				</port>
			</input>
			<output>
				<port id="1" precision="FP32">
					<dim>1</dim>
					<dim>24</dim>
					<dim>1</dim>
					<dim>1</dim>
				</port>
			</output>
		</layer>
		<layer id="222" name="280" type="Add" version="opset1">
			<data auto_broadcast="numpy"/>
			<input>
				<port id="0">
					<dim>1</dim>
					<dim>24</dim>
					<dim>40</dim>
					<dim>20</dim>
				</port>
				<port id="1">
					<dim>1</dim>
					<dim>24</dim>
					<dim>1</dim>
					<dim>1</dim>
				</port>
			</input>
			<output>
				<port id="2" precision="FP32" names="280">
					<dim>1</dim>
					<dim>24</dim>
					<dim>40</dim>
					<dim>20</dim>
				</port>
			</output>
		</layer>
		<layer id="223" name="281" type="ReLU" version="opset1">
			<input>
				<port id="0">
					<dim>1</dim>
					<dim>24</dim>
					<dim>40</dim>
					<dim>20</dim>
				</port>
			</input>
			<output>
				<port id="1" precision="FP32" names="281">
					<dim>1</dim>
					<dim>24</dim>
					<dim>40</dim>
					<dim>20</dim>
				</port>
			</output>
		</layer>
		<layer id="224" name="282/WithoutBiases/fq_input_0" type="FakeQuantize" version="opset1">
			<data levels="256" auto_broadcast="numpy"/>
			<input>
				<port id="0">
					<dim>1</dim>
					<dim>24</dim>
					<dim>40</dim>
					<dim>20</dim>
				</port>
				<port id="1"/>
				<port id="2"/>
				<port id="3"/>
				<port id="4"/>
			</input>
			<output>
				<port id="5" precision="FP32">
					<dim>1</dim>
					<dim>24</dim>
					<dim>40</dim>
					<dim>20</dim>
				</port>
			</output>
		</layer>
		<layer id="225" name="282/WithoutBiases/fq_weights_1/scale994914905" type="Const" version="opset1">
			<data offset="3719" size="96" shape="24,1,1,1" element_type="f32"/>
			<output>
				<port id="0" precision="FP32">
					<dim>24</dim>
					<dim>1</dim>
					<dim>1</dim>
					<dim>1</dim>
				</port>
			</output>
		</layer>
		<layer id="226" name="105327508/restored_convert/quantized994115097" type="Const" version="opset1">
			<data offset="3815" size="5184" shape="24,24,3,3" element_type="i8"/>
			<output>
				<port id="0" precision="I8">
					<dim>24</dim>
					<dim>24</dim>
					<dim>3</dim>
					<dim>3</dim>
				</port>
			</output>
		</layer>
		<layer id="227" name="105327508/restored_convert/quantized/to_f32" type="Convert" version="opset1">
			<data destination_type="f32"/>
			<input>
				<port id="0">
					<dim>24</dim>
					<dim>24</dim>
					<dim>3</dim>
					<dim>3</dim>
				</port>
			</input>
			<output>
				<port id="1" precision="FP32">
					<dim>24</dim>
					<dim>24</dim>
					<dim>3</dim>
					<dim>3</dim>
				</port>
			</output>
		</layer>
		<layer id="228" name="282/WithoutBiases/fq_weights_1/mulpiply_by_scale" type="Multiply" version="opset1">
			<data auto_broadcast="numpy"/>
			<input>
				<port id="0">
					<dim>24</dim>
					<dim>24</dim>
					<dim>3</dim>
					<dim>3</dim>
				</port>
				<port id="1">
					<dim>24</dim>
					<dim>1</dim>
					<dim>1</dim>
					<dim>1</dim>
				</port>
			</input>
			<output>
				<port id="2" precision="FP32">
					<dim>24</dim>
					<dim>24</dim>
					<dim>3</dim>
					<dim>3</dim>
				</port>
			</output>
		</layer>
		<layer id="229" name="282/WithoutBiases" type="Convolution" version="opset1">
			<data auto_pad="explicit" strides="1,1" dilations="1,1" pads_begin="1,1" pads_end="1,1"/>
			<input>
				<port id="0">
					<dim>1</dim>
					<dim>24</dim>
					<dim>40</dim>
					<dim>20</dim>
				</port>
				<port id="1">
					<dim>24</dim>
					<dim>24</dim>
					<dim>3</dim>
					<dim>3</dim>
				</port>
			</input>
			<output>
				<port id="2" precision="FP32">
					<dim>1</dim>
					<dim>24</dim>
					<dim>40</dim>
					<dim>20</dim>
				</port>
			</output>
		</layer>
		<layer id="230" name="Reshape_39653513906" type="Const" version="opset1">
			<data offset="8999" size="48" shape="1,24,1,1" element_type="f16"/>
			<output>
				<port id="0" precision="FP16">
					<dim>1</dim>
					<dim>24</dim>
					<dim>1</dim>
					<dim>1</dim>
				</port>
			</output>
		</layer>
		<layer id="231" name="Reshape_3965357509/restored_convert" type="Convert" version="opset1">
			<data destination_type="f32"/>
			<rt_info>
				<attribute name="decompression" version="0"/>
			</rt_info>
			<input>
				<port id="0">
					<dim>1</dim>
					<dim>24</dim>
					<dim>1</dim>
					<dim>1</dim>
				</port>
			</input>
			<output>
				<port id="1" precision="FP32">
					<dim>1</dim>
					<dim>24</dim>
					<dim>1</dim>
					<dim>1</dim>
				</port>
			</output>
		</layer>
		<layer id="232" name="282" type="Add" version="opset1">
			<data auto_broadcast="numpy"/>
			<input>
				<port id="0">
					<dim>1</dim>
					<dim>24</dim>
					<dim>40</dim>
					<dim>20</dim>
				</port>
				<port id="1">
					<dim>1</dim>
					<dim>24</dim>
					<dim>1</dim>
					<dim>1</dim>
				</port>
			</input>
			<output>
				<port id="2" precision="FP32" names="282">
					<dim>1</dim>
					<dim>24</dim>
					<dim>40</dim>
					<dim>20</dim>
				</port>
			</output>
		</layer>
		<layer id="233" name="283/fq_input_0" type="FakeQuantize" version="opset1">
			<data levels="256" auto_broadcast="numpy"/>
			<input>
				<port id="0">
					<dim>1</dim>
					<dim>24</dim>
					<dim>40</dim>
					<dim>20</dim>
				</port>
				<port id="1"/>
				<port id="2"/>
				<port id="3"/>
				<port id="4"/>
			</input>
			<output>
				<port id="5" precision="FP32">
					<dim>1</dim>
					<dim>24</dim>
					<dim>40</dim>
					<dim>20</dim>
				</port>
			</output>
		</layer>
		<layer id="234" name="283/fq_weights_1/scale970914158" type="Const" version="opset1">
			<data offset="2470" size="4" shape="1,1,1,1" element_type="f32"/>
			<output>
				<port id="0" precision="FP32">
					<dim>1</dim>
					<dim>1</dim>
					<dim>1</dim>
					<dim>1</dim>
				</port>
			</output>
		</layer>
		<layer id="235" name="Constant_96525387510/restored_convert/quantized970114446" type="Const" version="opset1">
			<data offset="2474" size="1" shape="1,1,1,1" element_type="i8"/>
			<output>
				<port id="0" precision="I8">
					<dim>1</dim>
					<dim>1</dim>
					<dim>1</dim>
					<dim>1</dim>
				</port>
			</output>
		</layer>
		<layer id="236" name="Constant_96525387510/restored_convert/quantized/to_f32" type="Convert" version="opset1">
			<data destination_type="f32"/>
			<input>
				<port id="0">
					<dim>1</dim>
					<dim>1</dim>
					<dim>1</dim>
					<dim>1</dim>
				</port>
			</input>
			<output>
				<port id="1" precision="FP32">
					<dim>1</dim>
					<dim>1</dim>
					<dim>1</dim>
					<dim>1</dim>
				</port>
			</output>
		</layer>
		<layer id="237" name="283/fq_weights_1/mulpiply_by_scale" type="Multiply" version="opset1">
			<data auto_broadcast="numpy"/>
			<input>
				<port id="0">
					<dim>1</dim>
					<dim>1</dim>
					<dim>1</dim>
					<dim>1</dim>
				</port>
				<port id="1">
					<dim>1</dim>
					<dim>1</dim>
					<dim>1</dim>
					<dim>1</dim>
				</port>
			</input>
			<output>
				<port id="2" precision="FP32">
					<dim>1</dim>
					<dim>1</dim>
					<dim>1</dim>
					<dim>1</dim>
				</port>
			</output>
		</layer>
		<layer id="238" name="283" type="Multiply" version="opset1">
			<data auto_broadcast="numpy"/>
			<input>
				<port id="0">
					<dim>1</dim>
					<dim>24</dim>
					<dim>40</dim>
					<dim>20</dim>
				</port>
				<port id="1">
					<dim>1</dim>
					<dim>1</dim>
					<dim>1</dim>
					<dim>1</dim>
				</port>
			</input>
			<output>
				<port id="2" precision="FP32" names="283">
					<dim>1</dim>
					<dim>24</dim>
					<dim>40</dim>
					<dim>20</dim>
				</port>
			</output>
		</layer>
		<layer id="239" name="284/fq_input_1" type="FakeQuantize" version="opset1">
			<data levels="256" auto_broadcast="numpy"/>
			<input>
				<port id="0">
					<dim>1</dim>
					<dim>24</dim>
					<dim>40</dim>
					<dim>20</dim>
				</port>
				<port id="1"/>
				<port id="2"/>
				<port id="3"/>
				<port id="4"/>
			</input>
			<output>
				<port id="5" precision="FP32">
					<dim>1</dim>
					<dim>24</dim>
					<dim>40</dim>
					<dim>20</dim>
				</port>
			</output>
		</layer>
		<layer id="240" name="284" type="Concat" version="opset1">
			<data axis="1"/>
			<input>
				<port id="0">
					<dim>1</dim>
					<dim>24</dim>
					<dim>40</dim>
					<dim>20</dim>
				</port>
				<port id="1">
					<dim>1</dim>
					<dim>24</dim>
					<dim>40</dim>
					<dim>20</dim>
				</port>
			</input>
			<output>
				<port id="2" precision="FP32" names="284">
					<dim>1</dim>
					<dim>48</dim>
					<dim>40</dim>
					<dim>20</dim>
				</port>
			</output>
		</layer>
		<layer id="241" name="Constant_448154214218" type="Const" version="opset1">
			<data offset="9047" size="96" shape="1,48,1,1" element_type="f16"/>
			<output>
				<port id="0" precision="FP16">
					<dim>1</dim>
					<dim>48</dim>
					<dim>1</dim>
					<dim>1</dim>
				</port>
			</output>
		</layer>
		<layer id="242" name="Constant_44815427511/restored_convert" type="Convert" version="opset1">
			<data destination_type="f32"/>
			<rt_info>
				<attribute name="decompression" version="0"/>
			</rt_info>
			<input>
				<port id="0">
					<dim>1</dim>
					<dim>48</dim>
					<dim>1</dim>
					<dim>1</dim>
				</port>
			</input>
			<output>
				<port id="1" precision="FP32">
					<dim>1</dim>
					<dim>48</dim>
					<dim>1</dim>
					<dim>1</dim>
				</port>
			</output>
		</layer>
		<layer id="243" name="Multiply_8914" type="Multiply" version="opset1">
			<data auto_broadcast="numpy"/>
			<input>
				<port id="0">
					<dim>1</dim>
					<dim>48</dim>
					<dim>40</dim>
					<dim>20</dim>
				</port>
				<port id="1">
					<dim>1</dim>
					<dim>48</dim>
					<dim>1</dim>
					<dim>1</dim>
				</port>
			</input>
			<output>
				<port id="2" precision="FP32">
					<dim>1</dim>
					<dim>48</dim>
					<dim>40</dim>
					<dim>20</dim>
				</port>
			</output>
		</layer>
		<layer id="244" name="Constant_891954514584" type="Const" version="opset1">
			<data offset="9143" size="96" shape="1,48,1,1" element_type="f16"/>
			<output>
				<port id="0" precision="FP16">
					<dim>1</dim>
					<dim>48</dim>
					<dim>1</dim>
					<dim>1</dim>
				</port>
			</output>
		</layer>
		<layer id="245" name="Constant_89195457512/restored_convert" type="Convert" version="opset1">
			<data destination_type="f32"/>
			<rt_info>
				<attribute name="decompression" version="0"/>
			</rt_info>
			<input>
				<port id="0">
					<dim>1</dim>
					<dim>48</dim>
					<dim>1</dim>
					<dim>1</dim>
				</port>
			</input>
			<output>
				<port id="1" precision="FP32">
					<dim>1</dim>
					<dim>48</dim>
					<dim>1</dim>
					<dim>1</dim>
				</port>
			</output>
		</layer>
		<layer id="246" name="285" type="Add" version="opset1">
			<data auto_broadcast="numpy"/>
			<input>
				<port id="0">
					<dim>1</dim>
					<dim>48</dim>
					<dim>40</dim>
					<dim>20</dim>
				</port>
				<port id="1">
					<dim>1</dim>
					<dim>48</dim>
					<dim>1</dim>
					<dim>1</dim>
				</port>
			</input>
			<output>
				<port id="2" precision="FP32" names="285">
					<dim>1</dim>
					<dim>48</dim>
					<dim>40</dim>
					<dim>20</dim>
				</port>
			</output>
		</layer>
		<layer id="247" name="286" type="ReLU" version="opset1">
			<input>
				<port id="0">
					<dim>1</dim>
					<dim>48</dim>
					<dim>40</dim>
					<dim>20</dim>
				</port>
			</input>
			<output>
				<port id="1" precision="FP32" names="286">
					<dim>1</dim>
					<dim>48</dim>
					<dim>40</dim>
					<dim>20</dim>
				</port>
			</output>
		</layer>
		<layer id="248" name="287/WithoutBiases/fq_input_0" type="FakeQuantize" version="opset1">
			<data levels="256" auto_broadcast="numpy"/>
			<input>
				<port id="0">
					<dim>1</dim>
					<dim>48</dim>
					<dim>40</dim>
					<dim>20</dim>
				</port>
				<port id="1"/>
				<port id="2"/>
				<port id="3"/>
				<port id="4"/>
			</input>
			<output>
				<port id="5" precision="FP32">
					<dim>1</dim>
					<dim>48</dim>
					<dim>40</dim>
					<dim>20</dim>
				</port>
			</output>
		</layer>
		<layer id="249" name="287/WithoutBiases/fq_weights_1/scale1015914152" type="Const" version="opset1">
			<data offset="9239" size="256" shape="64,1,1,1" element_type="f32"/>
			<output>
				<port id="0" precision="FP32">
					<dim>64</dim>
					<dim>1</dim>
					<dim>1</dim>
					<dim>1</dim>
				</port>
			</output>
		</layer>
		<layer id="250" name="175497513/restored_convert/quantized1015115022" type="Const" version="opset1">
			<data offset="9495" size="3072" shape="64,48,1,1" element_type="i8"/>
			<output>
				<port id="0" precision="I8">
					<dim>64</dim>
					<dim>48</dim>
					<dim>1</dim>
					<dim>1</dim>
				</port>
			</output>
		</layer>
		<layer id="251" name="175497513/restored_convert/quantized/to_f32" type="Convert" version="opset1">
			<data destination_type="f32"/>
			<input>
				<port id="0">
					<dim>64</dim>
					<dim>48</dim>
					<dim>1</dim>
					<dim>1</dim>
				</port>
			</input>
			<output>
				<port id="1" precision="FP32">
					<dim>64</dim>
					<dim>48</dim>
					<dim>1</dim>
					<dim>1</dim>
				</port>
			</output>
		</layer>
		<layer id="252" name="287/WithoutBiases/fq_weights_1/mulpiply_by_scale" type="Multiply" version="opset1">
			<data auto_broadcast="numpy"/>
			<input>
				<port id="0">
					<dim>64</dim>
					<dim>48</dim>
					<dim>1</dim>
					<dim>1</dim>
				</port>
				<port id="1">
					<dim>64</dim>
					<dim>1</dim>
					<dim>1</dim>
					<dim>1</dim>
				</port>
			</input>
			<output>
				<port id="2" precision="FP32">
					<dim>64</dim>
					<dim>48</dim>
					<dim>1</dim>
					<dim>1</dim>
				</port>
			</output>
		</layer>
		<layer id="253" name="287/WithoutBiases" type="Convolution" version="opset1">
			<data auto_pad="explicit" strides="1,1" dilations="1,1" pads_begin="0,0" pads_end="0,0"/>
			<input>
				<port id="0">
					<dim>1</dim>
					<dim>48</dim>
					<dim>40</dim>
					<dim>20</dim>
				</port>
				<port id="1">
					<dim>64</dim>
					<dim>48</dim>
					<dim>1</dim>
					<dim>1</dim>
				</port>
			</input>
			<output>
				<port id="2" precision="FP32">
					<dim>1</dim>
					<dim>64</dim>
					<dim>40</dim>
					<dim>20</dim>
				</port>
			</output>
		</layer>
		<layer id="254" name="Reshape_44855215253" type="Const" version="opset1">
			<data offset="12567" size="128" shape="1,64,1,1" element_type="f16"/>
			<output>
				<port id="0" precision="FP16">
					<dim>1</dim>
					<dim>64</dim>
					<dim>1</dim>
					<dim>1</dim>
				</port>
			</output>
		</layer>
		<layer id="255" name="Reshape_4485527514/restored_convert" type="Convert" version="opset1">
			<data destination_type="f32"/>
			<rt_info>
				<attribute name="decompression" version="0"/>
			</rt_info>
			<input>
				<port id="0">
					<dim>1</dim>
					<dim>64</dim>
					<dim>1</dim>
					<dim>1</dim>
				</port>
			</input>
			<output>
				<port id="1" precision="FP32">
					<dim>1</dim>
					<dim>64</dim>
					<dim>1</dim>
					<dim>1</dim>
				</port>
			</output>
		</layer>
		<layer id="256" name="287" type="Add" version="opset1">
			<data auto_broadcast="numpy"/>
			<input>
				<port id="0">
					<dim>1</dim>
					<dim>64</dim>
					<dim>40</dim>
					<dim>20</dim>
				</port>
				<port id="1">
					<dim>1</dim>
					<dim>64</dim>
					<dim>1</dim>
					<dim>1</dim>
				</port>
			</input>
			<output>
				<port id="2" precision="FP32" names="287">
					<dim>1</dim>
					<dim>64</dim>
					<dim>40</dim>
					<dim>20</dim>
				</port>
			</output>
		</layer>
		<layer id="257" name="289/fq_input_0" type="FakeQuantize" version="opset1">
			<data levels="256" auto_broadcast="numpy"/>
			<input>
				<port id="0">
					<dim>1</dim>
					<dim>64</dim>
					<dim>40</dim>
					<dim>20</dim>
				</port>
				<port id="1"/>
				<port id="2"/>
				<port id="3"/>
				<port id="4"/>
			</input>
			<output>
				<port id="5" precision="FP32">
					<dim>1</dim>
					<dim>64</dim>
					<dim>40</dim>
					<dim>20</dim>
				</port>
			</output>
		</layer>
		<layer id="258" name="2379238314809" type="Const" version="opset1">
			<data offset="12695" size="4" shape="" element_type="f32"/>
			<output>
				<port id="0" precision="FP32"/>
			</output>
		</layer>
		<layer id="259" name="2380238415259" type="Const" version="opset1">
			<data offset="12699" size="4" shape="" element_type="f32"/>
			<output>
				<port id="0" precision="FP32"/>
			</output>
		</layer>
		<layer id="260" name="2381238514353" type="Const" version="opset1">
			<data offset="12695" size="4" shape="" element_type="f32"/>
			<output>
				<port id="0" precision="FP32"/>
			</output>
		</layer>
		<layer id="261" name="2382238613945" type="Const" version="opset1">
			<data offset="12699" size="4" shape="" element_type="f32"/>
			<output>
				<port id="0" precision="FP32"/>
			</output>
		</layer>
		<layer id="262" name="2589259314359" type="Const" version="opset1">
			<data offset="12703" size="4" shape="" element_type="f32"/>
			<output>
				<port id="0" precision="FP32"/>
			</output>
		</layer>
		<layer id="263" name="2590259413939" type="Const" version="opset1">
			<data offset="2803" size="4" shape="" element_type="f32"/>
			<output>
				<port id="0" precision="FP32"/>
			</output>
		</layer>
		<layer id="264" name="2591259513696" type="Const" version="opset1">
			<data offset="12703" size="4" shape="" element_type="f32"/>
			<output>
				<port id="0" precision="FP32"/>
			</output>
		</layer>
		<layer id="265" name="2592259614917" type="Const" version="opset1">
			<data offset="2803" size="4" shape="" element_type="f32"/>
			<output>
				<port id="0" precision="FP32"/>
			</output>
		</layer>
		<layer id="266" name="288/WithoutBiases/fq_input_0" type="FakeQuantize" version="opset1">
			<data levels="256" auto_broadcast="numpy"/>
			<input>
				<port id="0">
					<dim>1</dim>
					<dim>32</dim>
					<dim>40</dim>
					<dim>20</dim>
				</port>
				<port id="1"/>
				<port id="2"/>
				<port id="3"/>
				<port id="4"/>
			</input>
			<output>
				<port id="5" precision="FP32">
					<dim>1</dim>
					<dim>32</dim>
					<dim>40</dim>
					<dim>20</dim>
				</port>
			</output>
		</layer>
		<layer id="267" name="288/WithoutBiases/fq_weights_1/scale949914341" type="Const" version="opset1">
			<data offset="12707" size="256" shape="64,1,1,1" element_type="f32"/>
			<output>
				<port id="0" precision="FP32">
					<dim>64</dim>
					<dim>1</dim>
					<dim>1</dim>
					<dim>1</dim>
				</port>
			</output>
		</layer>
		<layer id="268" name="195557515/restored_convert/quantized949113663" type="Const" version="opset1">
			<data offset="12963" size="2048" shape="64,32,1,1" element_type="i8"/>
			<output>
				<port id="0" precision="I8">
					<dim>64</dim>
					<dim>32</dim>
					<dim>1</dim>
					<dim>1</dim>
				</port>
			</output>
		</layer>
		<layer id="269" name="195557515/restored_convert/quantized/to_f32" type="Convert" version="opset1">
			<data destination_type="f32"/>
			<input>
				<port id="0">
					<dim>64</dim>
					<dim>32</dim>
					<dim>1</dim>
					<dim>1</dim>
				</port>
			</input>
			<output>
				<port id="1" precision="FP32">
					<dim>64</dim>
					<dim>32</dim>
					<dim>1</dim>
					<dim>1</dim>
				</port>
			</output>
		</layer>
		<layer id="270" name="288/WithoutBiases/fq_weights_1/mulpiply_by_scale" type="Multiply" version="opset1">
			<data auto_broadcast="numpy"/>
			<input>
				<port id="0">
					<dim>64</dim>
					<dim>32</dim>
					<dim>1</dim>
					<dim>1</dim>
				</port>
				<port id="1">
					<dim>64</dim>
					<dim>1</dim>
					<dim>1</dim>
					<dim>1</dim>
				</port>
			</input>
			<output>
				<port id="2" precision="FP32">
					<dim>64</dim>
					<dim>32</dim>
					<dim>1</dim>
					<dim>1</dim>
				</port>
			</output>
		</layer>
		<layer id="271" name="288/WithoutBiases" type="Convolution" version="opset1">
			<data auto_pad="explicit" strides="1,1" dilations="1,1" pads_begin="0,0" pads_end="0,0"/>
			<input>
				<port id="0">
					<dim>1</dim>
					<dim>32</dim>
					<dim>40</dim>
					<dim>20</dim>
				</port>
				<port id="1">
					<dim>64</dim>
					<dim>32</dim>
					<dim>1</dim>
					<dim>1</dim>
				</port>
			</input>
			<output>
				<port id="2" precision="FP32">
					<dim>1</dim>
					<dim>64</dim>
					<dim>40</dim>
					<dim>20</dim>
				</port>
			</output>
		</layer>
		<layer id="272" name="Reshape_49655814965" type="Const" version="opset1">
			<data offset="15011" size="128" shape="1,64,1,1" element_type="f16"/>
			<output>
				<port id="0" precision="FP16">
					<dim>1</dim>
					<dim>64</dim>
					<dim>1</dim>
					<dim>1</dim>
				</port>
			</output>
		</layer>
		<layer id="273" name="Reshape_4965587516/restored_convert" type="Convert" version="opset1">
			<data destination_type="f32"/>
			<rt_info>
				<attribute name="decompression" version="0"/>
			</rt_info>
			<input>
				<port id="0">
					<dim>1</dim>
					<dim>64</dim>
					<dim>1</dim>
					<dim>1</dim>
				</port>
			</input>
			<output>
				<port id="1" precision="FP32">
					<dim>1</dim>
					<dim>64</dim>
					<dim>1</dim>
					<dim>1</dim>
				</port>
			</output>
		</layer>
		<layer id="274" name="288" type="Add" version="opset1">
			<data auto_broadcast="numpy"/>
			<input>
				<port id="0">
					<dim>1</dim>
					<dim>64</dim>
					<dim>40</dim>
					<dim>20</dim>
				</port>
				<port id="1">
					<dim>1</dim>
					<dim>64</dim>
					<dim>1</dim>
					<dim>1</dim>
				</port>
			</input>
			<output>
				<port id="2" precision="FP32" names="288">
					<dim>1</dim>
					<dim>64</dim>
					<dim>40</dim>
					<dim>20</dim>
				</port>
			</output>
		</layer>
		<layer id="275" name="289/fq_input_1" type="FakeQuantize" version="opset1">
			<data levels="256" auto_broadcast="numpy"/>
			<input>
				<port id="0">
					<dim>1</dim>
					<dim>64</dim>
					<dim>40</dim>
					<dim>20</dim>
				</port>
				<port id="1"/>
				<port id="2"/>
				<port id="3"/>
				<port id="4"/>
			</input>
			<output>
				<port id="5" precision="FP32">
					<dim>1</dim>
					<dim>64</dim>
					<dim>40</dim>
					<dim>20</dim>
				</port>
			</output>
		</layer>
		<layer id="276" name="289" type="Add" version="opset1">
			<data auto_broadcast="numpy"/>
			<input>
				<port id="0">
					<dim>1</dim>
					<dim>64</dim>
					<dim>40</dim>
					<dim>20</dim>
				</port>
				<port id="1">
					<dim>1</dim>
					<dim>64</dim>
					<dim>40</dim>
					<dim>20</dim>
				</port>
			</input>
			<output>
				<port id="2" precision="FP32" names="289">
					<dim>1</dim>
					<dim>64</dim>
					<dim>40</dim>
					<dim>20</dim>
				</port>
			</output>
		</layer>
		<layer id="277" name="290" type="ReLU" version="opset1">
			<input>
				<port id="0">
					<dim>1</dim>
					<dim>64</dim>
					<dim>40</dim>
					<dim>20</dim>
				</port>
			</input>
			<output>
				<port id="1" precision="FP32" names="290">
					<dim>1</dim>
					<dim>64</dim>
					<dim>40</dim>
					<dim>20</dim>
				</port>
			</output>
		</layer>
		<layer id="278" name="291/WithoutBiases/fq_input_0" type="FakeQuantize" version="opset1">
			<data levels="256" auto_broadcast="numpy"/>
			<input>
				<port id="0">
					<dim>1</dim>
					<dim>64</dim>
					<dim>40</dim>
					<dim>20</dim>
				</port>
				<port id="1"/>
				<port id="2"/>
				<port id="3"/>
				<port id="4"/>
			</input>
			<output>
				<port id="5" precision="FP32">
					<dim>1</dim>
					<dim>64</dim>
					<dim>40</dim>
					<dim>20</dim>
				</port>
			</output>
		</layer>
		<layer id="279" name="291/WithoutBiases/fq_weights_1/scale1030914845" type="Const" version="opset1">
			<data offset="15139" size="96" shape="24,1,1,1" element_type="f32"/>
			<output>
				<port id="0" precision="FP32">
					<dim>24</dim>
					<dim>1</dim>
					<dim>1</dim>
					<dim>1</dim>
				</port>
			</output>
		</layer>
		<layer id="280" name="215637517/restored_convert/quantized1030113891" type="Const" version="opset1">
			<data offset="15235" size="1536" shape="24,64,1,1" element_type="i8"/>
			<output>
				<port id="0" precision="I8">
					<dim>24</dim>
					<dim>64</dim>
					<dim>1</dim>
					<dim>1</dim>
				</port>
			</output>
		</layer>
		<layer id="281" name="215637517/restored_convert/quantized/to_f32" type="Convert" version="opset1">
			<data destination_type="f32"/>
			<input>
				<port id="0">
					<dim>24</dim>
					<dim>64</dim>
					<dim>1</dim>
					<dim>1</dim>
				</port>
			</input>
			<output>
				<port id="1" precision="FP32">
					<dim>24</dim>
					<dim>64</dim>
					<dim>1</dim>
					<dim>1</dim>
				</port>
			</output>
		</layer>
		<layer id="282" name="291/WithoutBiases/fq_weights_1/mulpiply_by_scale" type="Multiply" version="opset1">
			<data auto_broadcast="numpy"/>
			<input>
				<port id="0">
					<dim>24</dim>
					<dim>64</dim>
					<dim>1</dim>
					<dim>1</dim>
				</port>
				<port id="1">
					<dim>24</dim>
					<dim>1</dim>
					<dim>1</dim>
					<dim>1</dim>
				</port>
			</input>
			<output>
				<port id="2" precision="FP32">
					<dim>24</dim>
					<dim>64</dim>
					<dim>1</dim>
					<dim>1</dim>
				</port>
			</output>
		</layer>
		<layer id="283" name="291/WithoutBiases" type="Convolution" version="opset1">
			<data auto_pad="explicit" strides="1,1" dilations="1,1" pads_begin="0,0" pads_end="0,0"/>
			<input>
				<port id="0">
					<dim>1</dim>
					<dim>64</dim>
					<dim>40</dim>
					<dim>20</dim>
				</port>
				<port id="1">
					<dim>24</dim>
					<dim>64</dim>
					<dim>1</dim>
					<dim>1</dim>
				</port>
			</input>
			<output>
				<port id="2" precision="FP32">
					<dim>1</dim>
					<dim>24</dim>
					<dim>40</dim>
					<dim>20</dim>
				</port>
			</output>
		</layer>
		<layer id="284" name="Reshape_54656613846" type="Const" version="opset1">
			<data offset="16771" size="48" shape="1,24,1,1" element_type="f16"/>
			<output>
				<port id="0" precision="FP16">
					<dim>1</dim>
					<dim>24</dim>
					<dim>1</dim>
					<dim>1</dim>
				</port>
			</output>
		</layer>
		<layer id="285" name="Reshape_5465667518/restored_convert" type="Convert" version="opset1">
			<data destination_type="f32"/>
			<rt_info>
				<attribute name="decompression" version="0"/>
			</rt_info>
			<input>
				<port id="0">
					<dim>1</dim>
					<dim>24</dim>
					<dim>1</dim>
					<dim>1</dim>
				</port>
			</input>
			<output>
				<port id="1" precision="FP32">
					<dim>1</dim>
					<dim>24</dim>
					<dim>1</dim>
					<dim>1</dim>
				</port>
			</output>
		</layer>
		<layer id="286" name="291" type="Add" version="opset1">
			<data auto_broadcast="numpy"/>
			<input>
				<port id="0">
					<dim>1</dim>
					<dim>24</dim>
					<dim>40</dim>
					<dim>20</dim>
				</port>
				<port id="1">
					<dim>1</dim>
					<dim>24</dim>
					<dim>1</dim>
					<dim>1</dim>
				</port>
			</input>
			<output>
				<port id="2" precision="FP32" names="291">
					<dim>1</dim>
					<dim>24</dim>
					<dim>40</dim>
					<dim>20</dim>
				</port>
			</output>
		</layer>
		<layer id="287" name="292" type="ReLU" version="opset1">
			<input>
				<port id="0">
					<dim>1</dim>
					<dim>24</dim>
					<dim>40</dim>
					<dim>20</dim>
				</port>
			</input>
			<output>
				<port id="1" precision="FP32" names="292">
					<dim>1</dim>
					<dim>24</dim>
					<dim>40</dim>
					<dim>20</dim>
				</port>
			</output>
		</layer>
		<layer id="288" name="293/WithoutBiases/fq_input_0" type="FakeQuantize" version="opset1">
			<data levels="256" auto_broadcast="numpy"/>
			<input>
				<port id="0">
					<dim>1</dim>
					<dim>24</dim>
					<dim>40</dim>
					<dim>20</dim>
				</port>
				<port id="1"/>
				<port id="2"/>
				<port id="3"/>
				<port id="4"/>
			</input>
			<output>
				<port id="5" precision="FP32">
					<dim>1</dim>
					<dim>24</dim>
					<dim>40</dim>
					<dim>20</dim>
				</port>
			</output>
		</layer>
		<layer id="289" name="293/WithoutBiases/fq_weights_1/scale1039915199" type="Const" version="opset1">
			<data offset="16819" size="96" shape="24,1,1,1" element_type="f32"/>
			<output>
				<port id="0" precision="FP32">
					<dim>24</dim>
					<dim>1</dim>
					<dim>1</dim>
					<dim>1</dim>
				</port>
			</output>
		</layer>
		<layer id="290" name="235707519/restored_convert/quantized1039113762" type="Const" version="opset1">
			<data offset="16915" size="5184" shape="24,24,3,3" element_type="i8"/>
			<output>
				<port id="0" precision="I8">
					<dim>24</dim>
					<dim>24</dim>
					<dim>3</dim>
					<dim>3</dim>
				</port>
			</output>
		</layer>
		<layer id="291" name="235707519/restored_convert/quantized/to_f32" type="Convert" version="opset1">
			<data destination_type="f32"/>
			<input>
				<port id="0">
					<dim>24</dim>
					<dim>24</dim>
					<dim>3</dim>
					<dim>3</dim>
				</port>
			</input>
			<output>
				<port id="1" precision="FP32">
					<dim>24</dim>
					<dim>24</dim>
					<dim>3</dim>
					<dim>3</dim>
				</port>
			</output>
		</layer>
		<layer id="292" name="293/WithoutBiases/fq_weights_1/mulpiply_by_scale" type="Multiply" version="opset1">
			<data auto_broadcast="numpy"/>
			<input>
				<port id="0">
					<dim>24</dim>
					<dim>24</dim>
					<dim>3</dim>
					<dim>3</dim>
				</port>
				<port id="1">
					<dim>24</dim>
					<dim>1</dim>
					<dim>1</dim>
					<dim>1</dim>
				</port>
			</input>
			<output>
				<port id="2" precision="FP32">
					<dim>24</dim>
					<dim>24</dim>
					<dim>3</dim>
					<dim>3</dim>
				</port>
			</output>
		</layer>
		<layer id="293" name="293/WithoutBiases" type="Convolution" version="opset1">
			<data auto_pad="explicit" strides="1,1" dilations="1,1" pads_begin="1,1" pads_end="1,1"/>
			<input>
				<port id="0">
					<dim>1</dim>
					<dim>24</dim>
					<dim>40</dim>
					<dim>20</dim>
				</port>
				<port id="1">
					<dim>24</dim>
					<dim>24</dim>
					<dim>3</dim>
					<dim>3</dim>
				</port>
			</input>
			<output>
				<port id="2" precision="FP32">
					<dim>1</dim>
					<dim>24</dim>
					<dim>40</dim>
					<dim>20</dim>
				</port>
			</output>
		</layer>
		<layer id="294" name="Reshape_59557313636" type="Const" version="opset1">
			<data offset="22099" size="48" shape="1,24,1,1" element_type="f16"/>
			<output>
				<port id="0" precision="FP16">
					<dim>1</dim>
					<dim>24</dim>
					<dim>1</dim>
					<dim>1</dim>
				</port>
			</output>
		</layer>
		<layer id="295" name="Reshape_5955737520/restored_convert" type="Convert" version="opset1">
			<data destination_type="f32"/>
			<rt_info>
				<attribute name="decompression" version="0"/>
			</rt_info>
			<input>
				<port id="0">
					<dim>1</dim>
					<dim>24</dim>
					<dim>1</dim>
					<dim>1</dim>
				</port>
			</input>
			<output>
				<port id="1" precision="FP32">
					<dim>1</dim>
					<dim>24</dim>
					<dim>1</dim>
					<dim>1</dim>
				</port>
			</output>
		</layer>
		<layer id="296" name="293" type="Add" version="opset1">
			<data auto_broadcast="numpy"/>
			<input>
				<port id="0">
					<dim>1</dim>
					<dim>24</dim>
					<dim>40</dim>
					<dim>20</dim>
				</port>
				<port id="1">
					<dim>1</dim>
					<dim>24</dim>
					<dim>1</dim>
					<dim>1</dim>
				</port>
			</input>
			<output>
				<port id="2" precision="FP32" names="293">
					<dim>1</dim>
					<dim>24</dim>
					<dim>40</dim>
					<dim>20</dim>
				</port>
			</output>
		</layer>
		<layer id="297" name="294/fq_input_0" type="FakeQuantize" version="opset1">
			<data levels="256" auto_broadcast="numpy"/>
			<input>
				<port id="0">
					<dim>1</dim>
					<dim>24</dim>
					<dim>40</dim>
					<dim>20</dim>
				</port>
				<port id="1"/>
				<port id="2"/>
				<port id="3"/>
				<port id="4"/>
			</input>
			<output>
				<port id="5" precision="FP32">
					<dim>1</dim>
					<dim>24</dim>
					<dim>40</dim>
					<dim>20</dim>
				</port>
			</output>
		</layer>
		<layer id="298" name="294/fq_weights_1/scale871915127" type="Const" version="opset1">
			<data offset="2470" size="4" shape="1,1,1,1" element_type="f32"/>
			<output>
				<port id="0" precision="FP32">
					<dim>1</dim>
					<dim>1</dim>
					<dim>1</dim>
					<dim>1</dim>
				</port>
			</output>
		</layer>
		<layer id="299" name="Constant_96535767521/restored_convert/quantized871115163" type="Const" version="opset1">
			<data offset="2474" size="1" shape="1,1,1,1" element_type="i8"/>
			<output>
				<port id="0" precision="I8">
					<dim>1</dim>
					<dim>1</dim>
					<dim>1</dim>
					<dim>1</dim>
				</port>
			</output>
		</layer>
		<layer id="300" name="Constant_96535767521/restored_convert/quantized/to_f32" type="Convert" version="opset1">
			<data destination_type="f32"/>
			<input>
				<port id="0">
					<dim>1</dim>
					<dim>1</dim>
					<dim>1</dim>
					<dim>1</dim>
				</port>
			</input>
			<output>
				<port id="1" precision="FP32">
					<dim>1</dim>
					<dim>1</dim>
					<dim>1</dim>
					<dim>1</dim>
				</port>
			</output>
		</layer>
		<layer id="301" name="294/fq_weights_1/mulpiply_by_scale" type="Multiply" version="opset1">
			<data auto_broadcast="numpy"/>
			<input>
				<port id="0">
					<dim>1</dim>
					<dim>1</dim>
					<dim>1</dim>
					<dim>1</dim>
				</port>
				<port id="1">
					<dim>1</dim>
					<dim>1</dim>
					<dim>1</dim>
					<dim>1</dim>
				</port>
			</input>
			<output>
				<port id="2" precision="FP32">
					<dim>1</dim>
					<dim>1</dim>
					<dim>1</dim>
					<dim>1</dim>
				</port>
			</output>
		</layer>
		<layer id="302" name="294" type="Multiply" version="opset1">
			<data auto_broadcast="numpy"/>
			<input>
				<port id="0">
					<dim>1</dim>
					<dim>24</dim>
					<dim>40</dim>
					<dim>20</dim>
				</port>
				<port id="1">
					<dim>1</dim>
					<dim>1</dim>
					<dim>1</dim>
					<dim>1</dim>
				</port>
			</input>
			<output>
				<port id="2" precision="FP32" names="294">
					<dim>1</dim>
					<dim>24</dim>
					<dim>40</dim>
					<dim>20</dim>
				</port>
			</output>
		</layer>
		<layer id="303" name="295/fq_input_1" type="FakeQuantize" version="opset1">
			<data levels="256" auto_broadcast="numpy"/>
			<input>
				<port id="0">
					<dim>1</dim>
					<dim>24</dim>
					<dim>40</dim>
					<dim>20</dim>
				</port>
				<port id="1"/>
				<port id="2"/>
				<port id="3"/>
				<port id="4"/>
			</input>
			<output>
				<port id="5" precision="FP32">
					<dim>1</dim>
					<dim>24</dim>
					<dim>40</dim>
					<dim>20</dim>
				</port>
			</output>
		</layer>
		<layer id="304" name="295" type="Concat" version="opset1">
			<data axis="1"/>
			<input>
				<port id="0">
					<dim>1</dim>
					<dim>24</dim>
					<dim>40</dim>
					<dim>20</dim>
				</port>
				<port id="1">
					<dim>1</dim>
					<dim>24</dim>
					<dim>40</dim>
					<dim>20</dim>
				</port>
			</input>
			<output>
				<port id="2" precision="FP32" names="295">
					<dim>1</dim>
					<dim>48</dim>
					<dim>40</dim>
					<dim>20</dim>
				</port>
			</output>
		</layer>
		<layer id="305" name="Constant_460958014305" type="Const" version="opset1">
			<data offset="22147" size="96" shape="1,48,1,1" element_type="f16"/>
			<output>
				<port id="0" precision="FP16">
					<dim>1</dim>
					<dim>48</dim>
					<dim>1</dim>
					<dim>1</dim>
				</port>
			</output>
		</layer>
		<layer id="306" name="Constant_46095807522/restored_convert" type="Convert" version="opset1">
			<data destination_type="f32"/>
			<rt_info>
				<attribute name="decompression" version="0"/>
			</rt_info>
			<input>
				<port id="0">
					<dim>1</dim>
					<dim>48</dim>
					<dim>1</dim>
					<dim>1</dim>
				</port>
			</input>
			<output>
				<port id="1" precision="FP32">
					<dim>1</dim>
					<dim>48</dim>
					<dim>1</dim>
					<dim>1</dim>
				</port>
			</output>
		</layer>
		<layer id="307" name="Multiply_8921" type="Multiply" version="opset1">
			<data auto_broadcast="numpy"/>
			<input>
				<port id="0">
					<dim>1</dim>
					<dim>48</dim>
					<dim>40</dim>
					<dim>20</dim>
				</port>
				<port id="1">
					<dim>1</dim>
					<dim>48</dim>
					<dim>1</dim>
					<dim>1</dim>
				</port>
			</input>
			<output>
				<port id="2" precision="FP32">
					<dim>1</dim>
					<dim>48</dim>
					<dim>40</dim>
					<dim>20</dim>
				</port>
			</output>
		</layer>
		<layer id="308" name="Constant_892658314977" type="Const" version="opset1">
			<data offset="22243" size="96" shape="1,48,1,1" element_type="f16"/>
			<output>
				<port id="0" precision="FP16">
					<dim>1</dim>
					<dim>48</dim>
					<dim>1</dim>
					<dim>1</dim>
				</port>
			</output>
		</layer>
		<layer id="309" name="Constant_89265837523/restored_convert" type="Convert" version="opset1">
			<data destination_type="f32"/>
			<rt_info>
				<attribute name="decompression" version="0"/>
			</rt_info>
			<input>
				<port id="0">
					<dim>1</dim>
					<dim>48</dim>
					<dim>1</dim>
					<dim>1</dim>
				</port>
			</input>
			<output>
				<port id="1" precision="FP32">
					<dim>1</dim>
					<dim>48</dim>
					<dim>1</dim>
					<dim>1</dim>
				</port>
			</output>
		</layer>
		<layer id="310" name="296" type="Add" version="opset1">
			<data auto_broadcast="numpy"/>
			<input>
				<port id="0">
					<dim>1</dim>
					<dim>48</dim>
					<dim>40</dim>
					<dim>20</dim>
				</port>
				<port id="1">
					<dim>1</dim>
					<dim>48</dim>
					<dim>1</dim>
					<dim>1</dim>
				</port>
			</input>
			<output>
				<port id="2" precision="FP32" names="296">
					<dim>1</dim>
					<dim>48</dim>
					<dim>40</dim>
					<dim>20</dim>
				</port>
			</output>
		</layer>
		<layer id="311" name="297" type="ReLU" version="opset1">
			<input>
				<port id="0">
					<dim>1</dim>
					<dim>48</dim>
					<dim>40</dim>
					<dim>20</dim>
				</port>
			</input>
			<output>
				<port id="1" precision="FP32" names="297">
					<dim>1</dim>
					<dim>48</dim>
					<dim>40</dim>
					<dim>20</dim>
				</port>
			</output>
		</layer>
		<layer id="312" name="298/WithoutBiases/fq_input_0" type="FakeQuantize" version="opset1">
			<data levels="256" auto_broadcast="numpy"/>
			<input>
				<port id="0">
					<dim>1</dim>
					<dim>48</dim>
					<dim>40</dim>
					<dim>20</dim>
				</port>
				<port id="1"/>
				<port id="2"/>
				<port id="3"/>
				<port id="4"/>
			</input>
			<output>
				<port id="5" precision="FP32">
					<dim>1</dim>
					<dim>48</dim>
					<dim>40</dim>
					<dim>20</dim>
				</port>
			</output>
		</layer>
		<layer id="313" name="298/WithoutBiases/fq_weights_1/scale859913798" type="Const" version="opset1">
			<data offset="22339" size="256" shape="64,1,1,1" element_type="f32"/>
			<output>
				<port id="0" precision="FP32">
					<dim>64</dim>
					<dim>1</dim>
					<dim>1</dim>
					<dim>1</dim>
				</port>
			</output>
		</layer>
		<layer id="314" name="305877524/restored_convert/quantized859114419" type="Const" version="opset1">
			<data offset="22595" size="3072" shape="64,48,1,1" element_type="i8"/>
			<output>
				<port id="0" precision="I8">
					<dim>64</dim>
					<dim>48</dim>
					<dim>1</dim>
					<dim>1</dim>
				</port>
			</output>
		</layer>
		<layer id="315" name="305877524/restored_convert/quantized/to_f32" type="Convert" version="opset1">
			<data destination_type="f32"/>
			<input>
				<port id="0">
					<dim>64</dim>
					<dim>48</dim>
					<dim>1</dim>
					<dim>1</dim>
				</port>
			</input>
			<output>
				<port id="1" precision="FP32">
					<dim>64</dim>
					<dim>48</dim>
					<dim>1</dim>
					<dim>1</dim>
				</port>
			</output>
		</layer>
		<layer id="316" name="298/WithoutBiases/fq_weights_1/mulpiply_by_scale" type="Multiply" version="opset1">
			<data auto_broadcast="numpy"/>
			<input>
				<port id="0">
					<dim>64</dim>
					<dim>48</dim>
					<dim>1</dim>
					<dim>1</dim>
				</port>
				<port id="1">
					<dim>64</dim>
					<dim>1</dim>
					<dim>1</dim>
					<dim>1</dim>
				</port>
			</input>
			<output>
				<port id="2" precision="FP32">
					<dim>64</dim>
					<dim>48</dim>
					<dim>1</dim>
					<dim>1</dim>
				</port>
			</output>
		</layer>
		<layer id="317" name="298/WithoutBiases" type="Convolution" version="opset1">
			<data auto_pad="explicit" strides="1,1" dilations="1,1" pads_begin="0,0" pads_end="0,0"/>
			<input>
				<port id="0">
					<dim>1</dim>
					<dim>48</dim>
					<dim>40</dim>
					<dim>20</dim>
				</port>
				<port id="1">
					<dim>64</dim>
					<dim>48</dim>
					<dim>1</dim>
					<dim>1</dim>
				</port>
			</input>
			<output>
				<port id="2" precision="FP32">
					<dim>1</dim>
					<dim>64</dim>
					<dim>40</dim>
					<dim>20</dim>
				</port>
			</output>
		</layer>
		<layer id="318" name="Reshape_64759013726" type="Const" version="opset1">
			<data offset="25667" size="128" shape="1,64,1,1" element_type="f16"/>
			<output>
				<port id="0" precision="FP16">
					<dim>1</dim>
					<dim>64</dim>
					<dim>1</dim>
					<dim>1</dim>
				</port>
			</output>
		</layer>
		<layer id="319" name="Reshape_6475907525/restored_convert" type="Convert" version="opset1">
			<data destination_type="f32"/>
			<rt_info>
				<attribute name="decompression" version="0"/>
			</rt_info>
			<input>
				<port id="0">
					<dim>1</dim>
					<dim>64</dim>
					<dim>1</dim>
					<dim>1</dim>
				</port>
			</input>
			<output>
				<port id="1" precision="FP32">
					<dim>1</dim>
					<dim>64</dim>
					<dim>1</dim>
					<dim>1</dim>
				</port>
			</output>
		</layer>
		<layer id="320" name="298" type="Add" version="opset1">
			<data auto_broadcast="numpy"/>
			<input>
				<port id="0">
					<dim>1</dim>
					<dim>64</dim>
					<dim>40</dim>
					<dim>20</dim>
				</port>
				<port id="1">
					<dim>1</dim>
					<dim>64</dim>
					<dim>1</dim>
					<dim>1</dim>
				</port>
			</input>
			<output>
				<port id="2" precision="FP32" names="298">
					<dim>1</dim>
					<dim>64</dim>
					<dim>40</dim>
					<dim>20</dim>
				</port>
			</output>
		</layer>
		<layer id="321" name="299/fq_input_0" type="FakeQuantize" version="opset1">
			<data levels="256" auto_broadcast="numpy"/>
			<input>
				<port id="0">
					<dim>1</dim>
					<dim>64</dim>
					<dim>40</dim>
					<dim>20</dim>
				</port>
				<port id="1"/>
				<port id="2"/>
				<port id="3"/>
				<port id="4"/>
			</input>
			<output>
				<port id="5" precision="FP32">
					<dim>1</dim>
					<dim>64</dim>
					<dim>40</dim>
					<dim>20</dim>
				</port>
			</output>
		</layer>
		<layer id="322" name="1809181313597" type="Const" version="opset1">
			<data offset="25795" size="4" shape="" element_type="f32"/>
			<output>
				<port id="0" precision="FP32"/>
			</output>
		</layer>
		<layer id="323" name="1810181415124" type="Const" version="opset1">
			<data offset="25799" size="4" shape="" element_type="f32"/>
			<output>
				<port id="0" precision="FP32"/>
			</output>
		</layer>
		<layer id="324" name="1811181514662" type="Const" version="opset1">
			<data offset="25795" size="4" shape="" element_type="f32"/>
			<output>
				<port id="0" precision="FP32"/>
			</output>
		</layer>
		<layer id="325" name="1812181614827" type="Const" version="opset1">
			<data offset="25799" size="4" shape="" element_type="f32"/>
			<output>
				<port id="0" precision="FP32"/>
			</output>
		</layer>
		<layer id="326" name="299/fq_input_1" type="FakeQuantize" version="opset1">
			<data levels="256" auto_broadcast="numpy"/>
			<input>
				<port id="0">
					<dim>1</dim>
					<dim>64</dim>
					<dim>40</dim>
					<dim>20</dim>
				</port>
				<port id="1"/>
				<port id="2"/>
				<port id="3"/>
				<port id="4"/>
			</input>
			<output>
				<port id="5" precision="FP32">
					<dim>1</dim>
					<dim>64</dim>
					<dim>40</dim>
					<dim>20</dim>
				</port>
			</output>
		</layer>
		<layer id="327" name="299" type="Add" version="opset1">
			<data auto_broadcast="numpy"/>
			<input>
				<port id="0">
					<dim>1</dim>
					<dim>64</dim>
					<dim>40</dim>
					<dim>20</dim>
				</port>
				<port id="1">
					<dim>1</dim>
					<dim>64</dim>
					<dim>40</dim>
					<dim>20</dim>
				</port>
			</input>
			<output>
				<port id="2" precision="FP32" names="299">
					<dim>1</dim>
					<dim>64</dim>
					<dim>40</dim>
					<dim>20</dim>
				</port>
			</output>
		</layer>
		<layer id="328" name="300" type="ReLU" version="opset1">
			<input>
				<port id="0">
					<dim>1</dim>
					<dim>64</dim>
					<dim>40</dim>
					<dim>20</dim>
				</port>
			</input>
			<output>
				<port id="1" precision="FP32" names="300">
					<dim>1</dim>
					<dim>64</dim>
					<dim>40</dim>
					<dim>20</dim>
				</port>
			</output>
		</layer>
		<layer id="329" name="301/WithoutBiases/fq_input_0" type="FakeQuantize" version="opset1">
			<data levels="256" auto_broadcast="numpy"/>
			<input>
				<port id="0">
					<dim>1</dim>
					<dim>64</dim>
					<dim>40</dim>
					<dim>20</dim>
				</port>
				<port id="1"/>
				<port id="2"/>
				<port id="3"/>
				<port id="4"/>
			</input>
			<output>
				<port id="5" precision="FP32">
					<dim>1</dim>
					<dim>64</dim>
					<dim>40</dim>
					<dim>20</dim>
				</port>
			</output>
		</layer>
		<layer id="330" name="301/WithoutBiases/fq_weights_1/scale1024913900" type="Const" version="opset1">
			<data offset="25803" size="96" shape="24,1,1,1" element_type="f32"/>
			<output>
				<port id="0" precision="FP32">
					<dim>24</dim>
					<dim>1</dim>
					<dim>1</dim>
					<dim>1</dim>
				</port>
			</output>
		</layer>
		<layer id="331" name="325957526/restored_convert/quantized1024115148" type="Const" version="opset1">
			<data offset="25899" size="1536" shape="24,64,1,1" element_type="i8"/>
			<output>
				<port id="0" precision="I8">
					<dim>24</dim>
					<dim>64</dim>
					<dim>1</dim>
					<dim>1</dim>
				</port>
			</output>
		</layer>
		<layer id="332" name="325957526/restored_convert/quantized/to_f32" type="Convert" version="opset1">
			<data destination_type="f32"/>
			<input>
				<port id="0">
					<dim>24</dim>
					<dim>64</dim>
					<dim>1</dim>
					<dim>1</dim>
				</port>
			</input>
			<output>
				<port id="1" precision="FP32">
					<dim>24</dim>
					<dim>64</dim>
					<dim>1</dim>
					<dim>1</dim>
				</port>
			</output>
		</layer>
		<layer id="333" name="301/WithoutBiases/fq_weights_1/mulpiply_by_scale" type="Multiply" version="opset1">
			<data auto_broadcast="numpy"/>
			<input>
				<port id="0">
					<dim>24</dim>
					<dim>64</dim>
					<dim>1</dim>
					<dim>1</dim>
				</port>
				<port id="1">
					<dim>24</dim>
					<dim>1</dim>
					<dim>1</dim>
					<dim>1</dim>
				</port>
			</input>
			<output>
				<port id="2" precision="FP32">
					<dim>24</dim>
					<dim>64</dim>
					<dim>1</dim>
					<dim>1</dim>
				</port>
			</output>
		</layer>
		<layer id="334" name="301/WithoutBiases" type="Convolution" version="opset1">
			<data auto_pad="explicit" strides="1,1" dilations="1,1" pads_begin="0,0" pads_end="0,0"/>
			<input>
				<port id="0">
					<dim>1</dim>
					<dim>64</dim>
					<dim>40</dim>
					<dim>20</dim>
				</port>
				<port id="1">
					<dim>24</dim>
					<dim>64</dim>
					<dim>1</dim>
					<dim>1</dim>
				</port>
			</input>
			<output>
				<port id="2" precision="FP32">
					<dim>1</dim>
					<dim>24</dim>
					<dim>40</dim>
					<dim>20</dim>
				</port>
			</output>
		</layer>
		<layer id="335" name="Reshape_69759814200" type="Const" version="opset1">
			<data offset="27435" size="48" shape="1,24,1,1" element_type="f16"/>
			<output>
				<port id="0" precision="FP16">
					<dim>1</dim>
					<dim>24</dim>
					<dim>1</dim>
					<dim>1</dim>
				</port>
			</output>
		</layer>
		<layer id="336" name="Reshape_6975987527/restored_convert" type="Convert" version="opset1">
			<data destination_type="f32"/>
			<rt_info>
				<attribute name="decompression" version="0"/>
			</rt_info>
			<input>
				<port id="0">
					<dim>1</dim>
					<dim>24</dim>
					<dim>1</dim>
					<dim>1</dim>
				</port>
			</input>
			<output>
				<port id="1" precision="FP32">
					<dim>1</dim>
					<dim>24</dim>
					<dim>1</dim>
					<dim>1</dim>
				</port>
			</output>
		</layer>
		<layer id="337" name="301" type="Add" version="opset1">
			<data auto_broadcast="numpy"/>
			<input>
				<port id="0">
					<dim>1</dim>
					<dim>24</dim>
					<dim>40</dim>
					<dim>20</dim>
				</port>
				<port id="1">
					<dim>1</dim>
					<dim>24</dim>
					<dim>1</dim>
					<dim>1</dim>
				</port>
			</input>
			<output>
				<port id="2" precision="FP32" names="301">
					<dim>1</dim>
					<dim>24</dim>
					<dim>40</dim>
					<dim>20</dim>
				</port>
			</output>
		</layer>
		<layer id="338" name="302" type="ReLU" version="opset1">
			<input>
				<port id="0">
					<dim>1</dim>
					<dim>24</dim>
					<dim>40</dim>
					<dim>20</dim>
				</port>
			</input>
			<output>
				<port id="1" precision="FP32" names="302">
					<dim>1</dim>
					<dim>24</dim>
					<dim>40</dim>
					<dim>20</dim>
				</port>
			</output>
		</layer>
		<layer id="339" name="303/WithoutBiases/fq_input_0" type="FakeQuantize" version="opset1">
			<data levels="256" auto_broadcast="numpy"/>
			<input>
				<port id="0">
					<dim>1</dim>
					<dim>24</dim>
					<dim>40</dim>
					<dim>20</dim>
				</port>
				<port id="1"/>
				<port id="2"/>
				<port id="3"/>
				<port id="4"/>
			</input>
			<output>
				<port id="5" precision="FP32">
					<dim>1</dim>
					<dim>24</dim>
					<dim>40</dim>
					<dim>20</dim>
				</port>
			</output>
		</layer>
		<layer id="340" name="303/WithoutBiases/fq_weights_1/scale1018914563" type="Const" version="opset1">
			<data offset="27483" size="96" shape="24,1,1,1" element_type="f32"/>
			<output>
				<port id="0" precision="FP32">
					<dim>24</dim>
					<dim>1</dim>
					<dim>1</dim>
					<dim>1</dim>
				</port>
			</output>
		</layer>
		<layer id="341" name="346027528/restored_convert/quantized1018114599" type="Const" version="opset1">
			<data offset="27579" size="5184" shape="24,24,3,3" element_type="i8"/>
			<output>
				<port id="0" precision="I8">
					<dim>24</dim>
					<dim>24</dim>
					<dim>3</dim>
					<dim>3</dim>
				</port>
			</output>
		</layer>
		<layer id="342" name="346027528/restored_convert/quantized/to_f32" type="Convert" version="opset1">
			<data destination_type="f32"/>
			<input>
				<port id="0">
					<dim>24</dim>
					<dim>24</dim>
					<dim>3</dim>
					<dim>3</dim>
				</port>
			</input>
			<output>
				<port id="1" precision="FP32">
					<dim>24</dim>
					<dim>24</dim>
					<dim>3</dim>
					<dim>3</dim>
				</port>
			</output>
		</layer>
		<layer id="343" name="303/WithoutBiases/fq_weights_1/mulpiply_by_scale" type="Multiply" version="opset1">
			<data auto_broadcast="numpy"/>
			<input>
				<port id="0">
					<dim>24</dim>
					<dim>24</dim>
					<dim>3</dim>
					<dim>3</dim>
				</port>
				<port id="1">
					<dim>24</dim>
					<dim>1</dim>
					<dim>1</dim>
					<dim>1</dim>
				</port>
			</input>
			<output>
				<port id="2" precision="FP32">
					<dim>24</dim>
					<dim>24</dim>
					<dim>3</dim>
					<dim>3</dim>
				</port>
			</output>
		</layer>
		<layer id="344" name="303/WithoutBiases" type="Convolution" version="opset1">
			<data auto_pad="explicit" strides="1,1" dilations="1,1" pads_begin="1,1" pads_end="1,1"/>
			<input>
				<port id="0">
					<dim>1</dim>
					<dim>24</dim>
					<dim>40</dim>
					<dim>20</dim>
				</port>
				<port id="1">
					<dim>24</dim>
					<dim>24</dim>
					<dim>3</dim>
					<dim>3</dim>
				</port>
			</input>
			<output>
				<port id="2" precision="FP32">
					<dim>1</dim>
					<dim>24</dim>
					<dim>40</dim>
					<dim>20</dim>
				</port>
			</output>
		</layer>
		<layer id="345" name="Reshape_74660514857" type="Const" version="opset1">
			<data offset="32763" size="48" shape="1,24,1,1" element_type="f16"/>
			<output>
				<port id="0" precision="FP16">
					<dim>1</dim>
					<dim>24</dim>
					<dim>1</dim>
					<dim>1</dim>
				</port>
			</output>
		</layer>
		<layer id="346" name="Reshape_7466057529/restored_convert" type="Convert" version="opset1">
			<data destination_type="f32"/>
			<rt_info>
				<attribute name="decompression" version="0"/>
			</rt_info>
			<input>
				<port id="0">
					<dim>1</dim>
					<dim>24</dim>
					<dim>1</dim>
					<dim>1</dim>
				</port>
			</input>
			<output>
				<port id="1" precision="FP32">
					<dim>1</dim>
					<dim>24</dim>
					<dim>1</dim>
					<dim>1</dim>
				</port>
			</output>
		</layer>
		<layer id="347" name="303" type="Add" version="opset1">
			<data auto_broadcast="numpy"/>
			<input>
				<port id="0">
					<dim>1</dim>
					<dim>24</dim>
					<dim>40</dim>
					<dim>20</dim>
				</port>
				<port id="1">
					<dim>1</dim>
					<dim>24</dim>
					<dim>1</dim>
					<dim>1</dim>
				</port>
			</input>
			<output>
				<port id="2" precision="FP32" names="303">
					<dim>1</dim>
					<dim>24</dim>
					<dim>40</dim>
					<dim>20</dim>
				</port>
			</output>
		</layer>
		<layer id="348" name="304/fq_input_0" type="FakeQuantize" version="opset1">
			<data levels="256" auto_broadcast="numpy"/>
			<input>
				<port id="0">
					<dim>1</dim>
					<dim>24</dim>
					<dim>40</dim>
					<dim>20</dim>
				</port>
				<port id="1"/>
				<port id="2"/>
				<port id="3"/>
				<port id="4"/>
			</input>
			<output>
				<port id="5" precision="FP32">
					<dim>1</dim>
					<dim>24</dim>
					<dim>40</dim>
					<dim>20</dim>
				</port>
			</output>
		</layer>
		<layer id="349" name="304/fq_weights_1/scale1009913957" type="Const" version="opset1">
			<data offset="2470" size="4" shape="1,1,1,1" element_type="f32"/>
			<output>
				<port id="0" precision="FP32">
					<dim>1</dim>
					<dim>1</dim>
					<dim>1</dim>
					<dim>1</dim>
				</port>
			</output>
		</layer>
		<layer id="350" name="Constant_96546087530/restored_convert/quantized1009114539" type="Const" version="opset1">
			<data offset="2474" size="1" shape="1,1,1,1" element_type="i8"/>
			<output>
				<port id="0" precision="I8">
					<dim>1</dim>
					<dim>1</dim>
					<dim>1</dim>
					<dim>1</dim>
				</port>
			</output>
		</layer>
		<layer id="351" name="Constant_96546087530/restored_convert/quantized/to_f32" type="Convert" version="opset1">
			<data destination_type="f32"/>
			<input>
				<port id="0">
					<dim>1</dim>
					<dim>1</dim>
					<dim>1</dim>
					<dim>1</dim>
				</port>
			</input>
			<output>
				<port id="1" precision="FP32">
					<dim>1</dim>
					<dim>1</dim>
					<dim>1</dim>
					<dim>1</dim>
				</port>
			</output>
		</layer>
		<layer id="352" name="304/fq_weights_1/mulpiply_by_scale" type="Multiply" version="opset1">
			<data auto_broadcast="numpy"/>
			<input>
				<port id="0">
					<dim>1</dim>
					<dim>1</dim>
					<dim>1</dim>
					<dim>1</dim>
				</port>
				<port id="1">
					<dim>1</dim>
					<dim>1</dim>
					<dim>1</dim>
					<dim>1</dim>
				</port>
			</input>
			<output>
				<port id="2" precision="FP32">
					<dim>1</dim>
					<dim>1</dim>
					<dim>1</dim>
					<dim>1</dim>
				</port>
			</output>
		</layer>
		<layer id="353" name="304" type="Multiply" version="opset1">
			<data auto_broadcast="numpy"/>
			<input>
				<port id="0">
					<dim>1</dim>
					<dim>24</dim>
					<dim>40</dim>
					<dim>20</dim>
				</port>
				<port id="1">
					<dim>1</dim>
					<dim>1</dim>
					<dim>1</dim>
					<dim>1</dim>
				</port>
			</input>
			<output>
				<port id="2" precision="FP32" names="304">
					<dim>1</dim>
					<dim>24</dim>
					<dim>40</dim>
					<dim>20</dim>
				</port>
			</output>
		</layer>
		<layer id="354" name="305/fq_input_1" type="FakeQuantize" version="opset1">
			<data levels="256" auto_broadcast="numpy"/>
			<input>
				<port id="0">
					<dim>1</dim>
					<dim>24</dim>
					<dim>40</dim>
					<dim>20</dim>
				</port>
				<port id="1"/>
				<port id="2"/>
				<port id="3"/>
				<port id="4"/>
			</input>
			<output>
				<port id="5" precision="FP32">
					<dim>1</dim>
					<dim>24</dim>
					<dim>40</dim>
					<dim>20</dim>
				</port>
			</output>
		</layer>
		<layer id="355" name="305" type="Concat" version="opset1">
			<data axis="1"/>
			<input>
				<port id="0">
					<dim>1</dim>
					<dim>24</dim>
					<dim>40</dim>
					<dim>20</dim>
				</port>
				<port id="1">
					<dim>1</dim>
					<dim>24</dim>
					<dim>40</dim>
					<dim>20</dim>
				</port>
			</input>
			<output>
				<port id="2" precision="FP32" names="305">
					<dim>1</dim>
					<dim>48</dim>
					<dim>40</dim>
					<dim>20</dim>
				</port>
			</output>
		</layer>
		<layer id="356" name="Constant_473761214473" type="Const" version="opset1">
			<data offset="32811" size="96" shape="1,48,1,1" element_type="f16"/>
			<output>
				<port id="0" precision="FP16">
					<dim>1</dim>
					<dim>48</dim>
					<dim>1</dim>
					<dim>1</dim>
				</port>
			</output>
		</layer>
		<layer id="357" name="Constant_47376127531/restored_convert" type="Convert" version="opset1">
			<data destination_type="f32"/>
			<rt_info>
				<attribute name="decompression" version="0"/>
			</rt_info>
			<input>
				<port id="0">
					<dim>1</dim>
					<dim>48</dim>
					<dim>1</dim>
					<dim>1</dim>
				</port>
			</input>
			<output>
				<port id="1" precision="FP32">
					<dim>1</dim>
					<dim>48</dim>
					<dim>1</dim>
					<dim>1</dim>
				</port>
			</output>
		</layer>
		<layer id="358" name="Multiply_8928" type="Multiply" version="opset1">
			<data auto_broadcast="numpy"/>
			<input>
				<port id="0">
					<dim>1</dim>
					<dim>48</dim>
					<dim>40</dim>
					<dim>20</dim>
				</port>
				<port id="1">
					<dim>1</dim>
					<dim>48</dim>
					<dim>1</dim>
					<dim>1</dim>
				</port>
			</input>
			<output>
				<port id="2" precision="FP32">
					<dim>1</dim>
					<dim>48</dim>
					<dim>40</dim>
					<dim>20</dim>
				</port>
			</output>
		</layer>
		<layer id="359" name="Constant_893361514983" type="Const" version="opset1">
			<data offset="32907" size="96" shape="1,48,1,1" element_type="f16"/>
			<output>
				<port id="0" precision="FP16">
					<dim>1</dim>
					<dim>48</dim>
					<dim>1</dim>
					<dim>1</dim>
				</port>
			</output>
		</layer>
		<layer id="360" name="Constant_89336157532/restored_convert" type="Convert" version="opset1">
			<data destination_type="f32"/>
			<rt_info>
				<attribute name="decompression" version="0"/>
			</rt_info>
			<input>
				<port id="0">
					<dim>1</dim>
					<dim>48</dim>
					<dim>1</dim>
					<dim>1</dim>
				</port>
			</input>
			<output>
				<port id="1" precision="FP32">
					<dim>1</dim>
					<dim>48</dim>
					<dim>1</dim>
					<dim>1</dim>
				</port>
			</output>
		</layer>
		<layer id="361" name="306" type="Add" version="opset1">
			<data auto_broadcast="numpy"/>
			<input>
				<port id="0">
					<dim>1</dim>
					<dim>48</dim>
					<dim>40</dim>
					<dim>20</dim>
				</port>
				<port id="1">
					<dim>1</dim>
					<dim>48</dim>
					<dim>1</dim>
					<dim>1</dim>
				</port>
			</input>
			<output>
				<port id="2" precision="FP32" names="306">
					<dim>1</dim>
					<dim>48</dim>
					<dim>40</dim>
					<dim>20</dim>
				</port>
			</output>
		</layer>
		<layer id="362" name="307" type="ReLU" version="opset1">
			<input>
				<port id="0">
					<dim>1</dim>
					<dim>48</dim>
					<dim>40</dim>
					<dim>20</dim>
				</port>
			</input>
			<output>
				<port id="1" precision="FP32" names="307">
					<dim>1</dim>
					<dim>48</dim>
					<dim>40</dim>
					<dim>20</dim>
				</port>
			</output>
		</layer>
		<layer id="363" name="308/WithoutBiases/fq_input_0" type="FakeQuantize" version="opset1">
			<data levels="256" auto_broadcast="numpy"/>
			<input>
				<port id="0">
					<dim>1</dim>
					<dim>48</dim>
					<dim>40</dim>
					<dim>20</dim>
				</port>
				<port id="1"/>
				<port id="2"/>
				<port id="3"/>
				<port id="4"/>
			</input>
			<output>
				<port id="5" precision="FP32">
					<dim>1</dim>
					<dim>48</dim>
					<dim>40</dim>
					<dim>20</dim>
				</port>
			</output>
		</layer>
		<layer id="364" name="308/WithoutBiases/fq_weights_1/scale862914425" type="Const" version="opset1">
			<data offset="33003" size="256" shape="64,1,1,1" element_type="f32"/>
			<output>
				<port id="0" precision="FP32">
					<dim>64</dim>
					<dim>1</dim>
					<dim>1</dim>
					<dim>1</dim>
				</port>
			</output>
		</layer>
		<layer id="365" name="416197533/restored_convert/quantized862114935" type="Const" version="opset1">
			<data offset="33259" size="3072" shape="64,48,1,1" element_type="i8"/>
			<output>
				<port id="0" precision="I8">
					<dim>64</dim>
					<dim>48</dim>
					<dim>1</dim>
					<dim>1</dim>
				</port>
			</output>
		</layer>
		<layer id="366" name="416197533/restored_convert/quantized/to_f32" type="Convert" version="opset1">
			<data destination_type="f32"/>
			<input>
				<port id="0">
					<dim>64</dim>
					<dim>48</dim>
					<dim>1</dim>
					<dim>1</dim>
				</port>
			</input>
			<output>
				<port id="1" precision="FP32">
					<dim>64</dim>
					<dim>48</dim>
					<dim>1</dim>
					<dim>1</dim>
				</port>
			</output>
		</layer>
		<layer id="367" name="308/WithoutBiases/fq_weights_1/mulpiply_by_scale" type="Multiply" version="opset1">
			<data auto_broadcast="numpy"/>
			<input>
				<port id="0">
					<dim>64</dim>
					<dim>48</dim>
					<dim>1</dim>
					<dim>1</dim>
				</port>
				<port id="1">
					<dim>64</dim>
					<dim>1</dim>
					<dim>1</dim>
					<dim>1</dim>
				</port>
			</input>
			<output>
				<port id="2" precision="FP32">
					<dim>64</dim>
					<dim>48</dim>
					<dim>1</dim>
					<dim>1</dim>
				</port>
			</output>
		</layer>
		<layer id="368" name="308/WithoutBiases" type="Convolution" version="opset1">
			<data auto_pad="explicit" strides="1,1" dilations="1,1" pads_begin="0,0" pads_end="0,0"/>
			<input>
				<port id="0">
					<dim>1</dim>
					<dim>48</dim>
					<dim>40</dim>
					<dim>20</dim>
				</port>
				<port id="1">
					<dim>64</dim>
					<dim>48</dim>
					<dim>1</dim>
					<dim>1</dim>
				</port>
			</input>
			<output>
				<port id="2" precision="FP32">
					<dim>1</dim>
					<dim>64</dim>
					<dim>40</dim>
					<dim>20</dim>
				</port>
			</output>
		</layer>
		<layer id="369" name="Reshape_79862213738" type="Const" version="opset1">
			<data offset="36331" size="128" shape="1,64,1,1" element_type="f16"/>
			<output>
				<port id="0" precision="FP16">
					<dim>1</dim>
					<dim>64</dim>
					<dim>1</dim>
					<dim>1</dim>
				</port>
			</output>
		</layer>
		<layer id="370" name="Reshape_7986227534/restored_convert" type="Convert" version="opset1">
			<data destination_type="f32"/>
			<rt_info>
				<attribute name="decompression" version="0"/>
			</rt_info>
			<input>
				<port id="0">
					<dim>1</dim>
					<dim>64</dim>
					<dim>1</dim>
					<dim>1</dim>
				</port>
			</input>
			<output>
				<port id="1" precision="FP32">
					<dim>1</dim>
					<dim>64</dim>
					<dim>1</dim>
					<dim>1</dim>
				</port>
			</output>
		</layer>
		<layer id="371" name="308" type="Add" version="opset1">
			<data auto_broadcast="numpy"/>
			<input>
				<port id="0">
					<dim>1</dim>
					<dim>64</dim>
					<dim>40</dim>
					<dim>20</dim>
				</port>
				<port id="1">
					<dim>1</dim>
					<dim>64</dim>
					<dim>1</dim>
					<dim>1</dim>
				</port>
			</input>
			<output>
				<port id="2" precision="FP32" names="308">
					<dim>1</dim>
					<dim>64</dim>
					<dim>40</dim>
					<dim>20</dim>
				</port>
			</output>
		</layer>
		<layer id="372" name="309/fq_input_0" type="FakeQuantize" version="opset1">
			<data levels="256" auto_broadcast="numpy"/>
			<input>
				<port id="0">
					<dim>1</dim>
					<dim>64</dim>
					<dim>40</dim>
					<dim>20</dim>
				</port>
				<port id="1"/>
				<port id="2"/>
				<port id="3"/>
				<port id="4"/>
			</input>
			<output>
				<port id="5" precision="FP32">
					<dim>1</dim>
					<dim>64</dim>
					<dim>40</dim>
					<dim>20</dim>
				</port>
			</output>
		</layer>
		<layer id="373" name="2479248314047" type="Const" version="opset1">
			<data offset="36459" size="4" shape="" element_type="f32"/>
			<output>
				<port id="0" precision="FP32"/>
			</output>
		</layer>
		<layer id="374" name="2480248414431" type="Const" version="opset1">
			<data offset="36463" size="4" shape="" element_type="f32"/>
			<output>
				<port id="0" precision="FP32"/>
			</output>
		</layer>
		<layer id="375" name="2481248515121" type="Const" version="opset1">
			<data offset="36459" size="4" shape="" element_type="f32"/>
			<output>
				<port id="0" precision="FP32"/>
			</output>
		</layer>
		<layer id="376" name="2482248615220" type="Const" version="opset1">
			<data offset="36463" size="4" shape="" element_type="f32"/>
			<output>
				<port id="0" precision="FP32"/>
			</output>
		</layer>
		<layer id="377" name="309/fq_input_1" type="FakeQuantize" version="opset1">
			<data levels="256" auto_broadcast="numpy"/>
			<input>
				<port id="0">
					<dim>1</dim>
					<dim>64</dim>
					<dim>40</dim>
					<dim>20</dim>
				</port>
				<port id="1"/>
				<port id="2"/>
				<port id="3"/>
				<port id="4"/>
			</input>
			<output>
				<port id="5" precision="FP32">
					<dim>1</dim>
					<dim>64</dim>
					<dim>40</dim>
					<dim>20</dim>
				</port>
			</output>
		</layer>
		<layer id="378" name="309" type="Add" version="opset1">
			<data auto_broadcast="numpy"/>
			<input>
				<port id="0">
					<dim>1</dim>
					<dim>64</dim>
					<dim>40</dim>
					<dim>20</dim>
				</port>
				<port id="1">
					<dim>1</dim>
					<dim>64</dim>
					<dim>40</dim>
					<dim>20</dim>
				</port>
			</input>
			<output>
				<port id="2" precision="FP32" names="309">
					<dim>1</dim>
					<dim>64</dim>
					<dim>40</dim>
					<dim>20</dim>
				</port>
			</output>
		</layer>
		<layer id="379" name="310" type="ReLU" version="opset1">
			<input>
				<port id="0">
					<dim>1</dim>
					<dim>64</dim>
					<dim>40</dim>
					<dim>20</dim>
				</port>
			</input>
			<output>
				<port id="1" precision="FP32" names="310">
					<dim>1</dim>
					<dim>64</dim>
					<dim>40</dim>
					<dim>20</dim>
				</port>
			</output>
		</layer>
		<layer id="380" name="311/WithoutBiases/fq_input_0" type="FakeQuantize" version="opset1">
			<data levels="256" auto_broadcast="numpy"/>
			<input>
				<port id="0">
					<dim>1</dim>
					<dim>64</dim>
					<dim>40</dim>
					<dim>20</dim>
				</port>
				<port id="1"/>
				<port id="2"/>
				<port id="3"/>
				<port id="4"/>
			</input>
			<output>
				<port id="5" precision="FP32">
					<dim>1</dim>
					<dim>64</dim>
					<dim>40</dim>
					<dim>20</dim>
				</port>
			</output>
		</layer>
		<layer id="381" name="311/WithoutBiases/fq_weights_1/scale889914668" type="Const" version="opset1">
			<data offset="36467" size="192" shape="48,1,1,1" element_type="f32"/>
			<output>
				<port id="0" precision="FP32">
					<dim>48</dim>
					<dim>1</dim>
					<dim>1</dim>
					<dim>1</dim>
				</port>
			</output>
		</layer>
		<layer id="382" name="436277535/restored_convert/quantized889115193" type="Const" version="opset1">
			<data offset="36659" size="3072" shape="48,64,1,1" element_type="i8"/>
			<output>
				<port id="0" precision="I8">
					<dim>48</dim>
					<dim>64</dim>
					<dim>1</dim>
					<dim>1</dim>
				</port>
			</output>
		</layer>
		<layer id="383" name="436277535/restored_convert/quantized/to_f32" type="Convert" version="opset1">
			<data destination_type="f32"/>
			<input>
				<port id="0">
					<dim>48</dim>
					<dim>64</dim>
					<dim>1</dim>
					<dim>1</dim>
				</port>
			</input>
			<output>
				<port id="1" precision="FP32">
					<dim>48</dim>
					<dim>64</dim>
					<dim>1</dim>
					<dim>1</dim>
				</port>
			</output>
		</layer>
		<layer id="384" name="311/WithoutBiases/fq_weights_1/mulpiply_by_scale" type="Multiply" version="opset1">
			<data auto_broadcast="numpy"/>
			<input>
				<port id="0">
					<dim>48</dim>
					<dim>64</dim>
					<dim>1</dim>
					<dim>1</dim>
				</port>
				<port id="1">
					<dim>48</dim>
					<dim>1</dim>
					<dim>1</dim>
					<dim>1</dim>
				</port>
			</input>
			<output>
				<port id="2" precision="FP32">
					<dim>48</dim>
					<dim>64</dim>
					<dim>1</dim>
					<dim>1</dim>
				</port>
			</output>
		</layer>
		<layer id="385" name="311/WithoutBiases" type="Convolution" version="opset1">
			<data auto_pad="explicit" strides="2,2" dilations="1,1" pads_begin="0,0" pads_end="0,0"/>
			<input>
				<port id="0">
					<dim>1</dim>
					<dim>64</dim>
					<dim>40</dim>
					<dim>20</dim>
				</port>
				<port id="1">
					<dim>48</dim>
					<dim>64</dim>
					<dim>1</dim>
					<dim>1</dim>
				</port>
			</input>
			<output>
				<port id="2" precision="FP32">
					<dim>1</dim>
					<dim>48</dim>
					<dim>20</dim>
					<dim>10</dim>
				</port>
			</output>
		</layer>
		<layer id="386" name="Reshape_84863014074" type="Const" version="opset1">
			<data offset="39731" size="96" shape="1,48,1,1" element_type="f16"/>
			<output>
				<port id="0" precision="FP16">
					<dim>1</dim>
					<dim>48</dim>
					<dim>1</dim>
					<dim>1</dim>
				</port>
			</output>
		</layer>
		<layer id="387" name="Reshape_8486307536/restored_convert" type="Convert" version="opset1">
			<data destination_type="f32"/>
			<rt_info>
				<attribute name="decompression" version="0"/>
			</rt_info>
			<input>
				<port id="0">
					<dim>1</dim>
					<dim>48</dim>
					<dim>1</dim>
					<dim>1</dim>
				</port>
			</input>
			<output>
				<port id="1" precision="FP32">
					<dim>1</dim>
					<dim>48</dim>
					<dim>1</dim>
					<dim>1</dim>
				</port>
			</output>
		</layer>
		<layer id="388" name="311" type="Add" version="opset1">
			<data auto_broadcast="numpy"/>
			<input>
				<port id="0">
					<dim>1</dim>
					<dim>48</dim>
					<dim>20</dim>
					<dim>10</dim>
				</port>
				<port id="1">
					<dim>1</dim>
					<dim>48</dim>
					<dim>1</dim>
					<dim>1</dim>
				</port>
			</input>
			<output>
				<port id="2" precision="FP32" names="311">
					<dim>1</dim>
					<dim>48</dim>
					<dim>20</dim>
					<dim>10</dim>
				</port>
			</output>
		</layer>
		<layer id="389" name="312" type="ReLU" version="opset1">
			<input>
				<port id="0">
					<dim>1</dim>
					<dim>48</dim>
					<dim>20</dim>
					<dim>10</dim>
				</port>
			</input>
			<output>
				<port id="1" precision="FP32" names="312">
					<dim>1</dim>
					<dim>48</dim>
					<dim>20</dim>
					<dim>10</dim>
				</port>
			</output>
		</layer>
		<layer id="390" name="313/WithoutBiases/fq_input_0" type="FakeQuantize" version="opset1">
			<data levels="256" auto_broadcast="numpy"/>
			<input>
				<port id="0">
					<dim>1</dim>
					<dim>48</dim>
					<dim>20</dim>
					<dim>10</dim>
				</port>
				<port id="1"/>
				<port id="2"/>
				<port id="3"/>
				<port id="4"/>
			</input>
			<output>
				<port id="5" precision="FP32">
					<dim>1</dim>
					<dim>48</dim>
					<dim>20</dim>
					<dim>10</dim>
				</port>
			</output>
		</layer>
		<layer id="391" name="313/WithoutBiases/fq_weights_1/scale868914368" type="Const" version="opset1">
			<data offset="39827" size="192" shape="48,1,1,1" element_type="f32"/>
			<output>
				<port id="0" precision="FP32">
					<dim>48</dim>
					<dim>1</dim>
					<dim>1</dim>
					<dim>1</dim>
				</port>
			</output>
		</layer>
		<layer id="392" name="456347537/restored_convert/quantized868113768" type="Const" version="opset1">
			<data offset="40019" size="20736" shape="48,48,3,3" element_type="i8"/>
			<output>
				<port id="0" precision="I8">
					<dim>48</dim>
					<dim>48</dim>
					<dim>3</dim>
					<dim>3</dim>
				</port>
			</output>
		</layer>
		<layer id="393" name="456347537/restored_convert/quantized/to_f32" type="Convert" version="opset1">
			<data destination_type="f32"/>
			<input>
				<port id="0">
					<dim>48</dim>
					<dim>48</dim>
					<dim>3</dim>
					<dim>3</dim>
				</port>
			</input>
			<output>
				<port id="1" precision="FP32">
					<dim>48</dim>
					<dim>48</dim>
					<dim>3</dim>
					<dim>3</dim>
				</port>
			</output>
		</layer>
		<layer id="394" name="313/WithoutBiases/fq_weights_1/mulpiply_by_scale" type="Multiply" version="opset1">
			<data auto_broadcast="numpy"/>
			<input>
				<port id="0">
					<dim>48</dim>
					<dim>48</dim>
					<dim>3</dim>
					<dim>3</dim>
				</port>
				<port id="1">
					<dim>48</dim>
					<dim>1</dim>
					<dim>1</dim>
					<dim>1</dim>
				</port>
			</input>
			<output>
				<port id="2" precision="FP32">
					<dim>48</dim>
					<dim>48</dim>
					<dim>3</dim>
					<dim>3</dim>
				</port>
			</output>
		</layer>
		<layer id="395" name="313/WithoutBiases" type="Convolution" version="opset1">
			<data auto_pad="explicit" strides="1,1" dilations="1,1" pads_begin="1,1" pads_end="1,1"/>
			<input>
				<port id="0">
					<dim>1</dim>
					<dim>48</dim>
					<dim>20</dim>
					<dim>10</dim>
				</port>
				<port id="1">
					<dim>48</dim>
					<dim>48</dim>
					<dim>3</dim>
					<dim>3</dim>
				</port>
			</input>
			<output>
				<port id="2" precision="FP32">
					<dim>1</dim>
					<dim>48</dim>
					<dim>20</dim>
					<dim>10</dim>
				</port>
			</output>
		</layer>
		<layer id="396" name="Reshape_89763713876" type="Const" version="opset1">
			<data offset="60755" size="96" shape="1,48,1,1" element_type="f16"/>
			<output>
				<port id="0" precision="FP16">
					<dim>1</dim>
					<dim>48</dim>
					<dim>1</dim>
					<dim>1</dim>
				</port>
			</output>
		</layer>
		<layer id="397" name="Reshape_8976377538/restored_convert" type="Convert" version="opset1">
			<data destination_type="f32"/>
			<rt_info>
				<attribute name="decompression" version="0"/>
			</rt_info>
			<input>
				<port id="0">
					<dim>1</dim>
					<dim>48</dim>
					<dim>1</dim>
					<dim>1</dim>
				</port>
			</input>
			<output>
				<port id="1" precision="FP32">
					<dim>1</dim>
					<dim>48</dim>
					<dim>1</dim>
					<dim>1</dim>
				</port>
			</output>
		</layer>
		<layer id="398" name="313" type="Add" version="opset1">
			<data auto_broadcast="numpy"/>
			<input>
				<port id="0">
					<dim>1</dim>
					<dim>48</dim>
					<dim>20</dim>
					<dim>10</dim>
				</port>
				<port id="1">
					<dim>1</dim>
					<dim>48</dim>
					<dim>1</dim>
					<dim>1</dim>
				</port>
			</input>
			<output>
				<port id="2" precision="FP32" names="313">
					<dim>1</dim>
					<dim>48</dim>
					<dim>20</dim>
					<dim>10</dim>
				</port>
			</output>
		</layer>
		<layer id="399" name="314/fq_input_0" type="FakeQuantize" version="opset1">
			<data levels="256" auto_broadcast="numpy"/>
			<input>
				<port id="0">
					<dim>1</dim>
					<dim>48</dim>
					<dim>20</dim>
					<dim>10</dim>
				</port>
				<port id="1"/>
				<port id="2"/>
				<port id="3"/>
				<port id="4"/>
			</input>
			<output>
				<port id="5" precision="FP32">
					<dim>1</dim>
					<dim>48</dim>
					<dim>20</dim>
					<dim>10</dim>
				</port>
			</output>
		</layer>
		<layer id="400" name="314/fq_weights_1/scale883914938" type="Const" version="opset1">
			<data offset="2470" size="4" shape="1,1,1,1" element_type="f32"/>
			<output>
				<port id="0" precision="FP32">
					<dim>1</dim>
					<dim>1</dim>
					<dim>1</dim>
					<dim>1</dim>
				</port>
			</output>
		</layer>
		<layer id="401" name="Constant_96556407539/restored_convert/quantized883114593" type="Const" version="opset1">
			<data offset="2474" size="1" shape="1,1,1,1" element_type="i8"/>
			<output>
				<port id="0" precision="I8">
					<dim>1</dim>
					<dim>1</dim>
					<dim>1</dim>
					<dim>1</dim>
				</port>
			</output>
		</layer>
		<layer id="402" name="Constant_96556407539/restored_convert/quantized/to_f32" type="Convert" version="opset1">
			<data destination_type="f32"/>
			<input>
				<port id="0">
					<dim>1</dim>
					<dim>1</dim>
					<dim>1</dim>
					<dim>1</dim>
				</port>
			</input>
			<output>
				<port id="1" precision="FP32">
					<dim>1</dim>
					<dim>1</dim>
					<dim>1</dim>
					<dim>1</dim>
				</port>
			</output>
		</layer>
		<layer id="403" name="314/fq_weights_1/mulpiply_by_scale" type="Multiply" version="opset1">
			<data auto_broadcast="numpy"/>
			<input>
				<port id="0">
					<dim>1</dim>
					<dim>1</dim>
					<dim>1</dim>
					<dim>1</dim>
				</port>
				<port id="1">
					<dim>1</dim>
					<dim>1</dim>
					<dim>1</dim>
					<dim>1</dim>
				</port>
			</input>
			<output>
				<port id="2" precision="FP32">
					<dim>1</dim>
					<dim>1</dim>
					<dim>1</dim>
					<dim>1</dim>
				</port>
			</output>
		</layer>
		<layer id="404" name="314" type="Multiply" version="opset1">
			<data auto_broadcast="numpy"/>
			<input>
				<port id="0">
					<dim>1</dim>
					<dim>48</dim>
					<dim>20</dim>
					<dim>10</dim>
				</port>
				<port id="1">
					<dim>1</dim>
					<dim>1</dim>
					<dim>1</dim>
					<dim>1</dim>
				</port>
			</input>
			<output>
				<port id="2" precision="FP32" names="314">
					<dim>1</dim>
					<dim>48</dim>
					<dim>20</dim>
					<dim>10</dim>
				</port>
			</output>
		</layer>
		<layer id="405" name="315/fq_input_1" type="FakeQuantize" version="opset1">
			<data levels="256" auto_broadcast="numpy"/>
			<input>
				<port id="0">
					<dim>1</dim>
					<dim>48</dim>
					<dim>20</dim>
					<dim>10</dim>
				</port>
				<port id="1"/>
				<port id="2"/>
				<port id="3"/>
				<port id="4"/>
			</input>
			<output>
				<port id="5" precision="FP32">
					<dim>1</dim>
					<dim>48</dim>
					<dim>20</dim>
					<dim>10</dim>
				</port>
			</output>
		</layer>
		<layer id="406" name="315" type="Concat" version="opset1">
			<data axis="1"/>
			<input>
				<port id="0">
					<dim>1</dim>
					<dim>48</dim>
					<dim>20</dim>
					<dim>10</dim>
				</port>
				<port id="1">
					<dim>1</dim>
					<dim>48</dim>
					<dim>20</dim>
					<dim>10</dim>
				</port>
			</input>
			<output>
				<port id="2" precision="FP32" names="315">
					<dim>1</dim>
					<dim>96</dim>
					<dim>20</dim>
					<dim>10</dim>
				</port>
			</output>
		</layer>
		<layer id="407" name="Constant_486564415223" type="Const" version="opset1">
			<data offset="60851" size="192" shape="1,96,1,1" element_type="f16"/>
			<output>
				<port id="0" precision="FP16">
					<dim>1</dim>
					<dim>96</dim>
					<dim>1</dim>
					<dim>1</dim>
				</port>
			</output>
		</layer>
		<layer id="408" name="Constant_48656447540/restored_convert" type="Convert" version="opset1">
			<data destination_type="f32"/>
			<rt_info>
				<attribute name="decompression" version="0"/>
			</rt_info>
			<input>
				<port id="0">
					<dim>1</dim>
					<dim>96</dim>
					<dim>1</dim>
					<dim>1</dim>
				</port>
			</input>
			<output>
				<port id="1" precision="FP32">
					<dim>1</dim>
					<dim>96</dim>
					<dim>1</dim>
					<dim>1</dim>
				</port>
			</output>
		</layer>
		<layer id="409" name="Multiply_8935" type="Multiply" version="opset1">
			<data auto_broadcast="numpy"/>
			<input>
				<port id="0">
					<dim>1</dim>
					<dim>96</dim>
					<dim>20</dim>
					<dim>10</dim>
				</port>
				<port id="1">
					<dim>1</dim>
					<dim>96</dim>
					<dim>1</dim>
					<dim>1</dim>
				</port>
			</input>
			<output>
				<port id="2" precision="FP32">
					<dim>1</dim>
					<dim>96</dim>
					<dim>20</dim>
					<dim>10</dim>
				</port>
			</output>
		</layer>
		<layer id="410" name="Constant_894064714575" type="Const" version="opset1">
			<data offset="61043" size="192" shape="1,96,1,1" element_type="f16"/>
			<output>
				<port id="0" precision="FP16">
					<dim>1</dim>
					<dim>96</dim>
					<dim>1</dim>
					<dim>1</dim>
				</port>
			</output>
		</layer>
		<layer id="411" name="Constant_89406477541/restored_convert" type="Convert" version="opset1">
			<data destination_type="f32"/>
			<rt_info>
				<attribute name="decompression" version="0"/>
			</rt_info>
			<input>
				<port id="0">
					<dim>1</dim>
					<dim>96</dim>
					<dim>1</dim>
					<dim>1</dim>
				</port>
			</input>
			<output>
				<port id="1" precision="FP32">
					<dim>1</dim>
					<dim>96</dim>
					<dim>1</dim>
					<dim>1</dim>
				</port>
			</output>
		</layer>
		<layer id="412" name="316" type="Add" version="opset1">
			<data auto_broadcast="numpy"/>
			<input>
				<port id="0">
					<dim>1</dim>
					<dim>96</dim>
					<dim>20</dim>
					<dim>10</dim>
				</port>
				<port id="1">
					<dim>1</dim>
					<dim>96</dim>
					<dim>1</dim>
					<dim>1</dim>
				</port>
			</input>
			<output>
				<port id="2" precision="FP32" names="316">
					<dim>1</dim>
					<dim>96</dim>
					<dim>20</dim>
					<dim>10</dim>
				</port>
			</output>
		</layer>
		<layer id="413" name="317" type="ReLU" version="opset1">
			<input>
				<port id="0">
					<dim>1</dim>
					<dim>96</dim>
					<dim>20</dim>
					<dim>10</dim>
				</port>
			</input>
			<output>
				<port id="1" precision="FP32" names="317">
					<dim>1</dim>
					<dim>96</dim>
					<dim>20</dim>
					<dim>10</dim>
				</port>
			</output>
		</layer>
		<layer id="414" name="318/WithoutBiases/fq_input_0" type="FakeQuantize" version="opset1">
			<data levels="256" auto_broadcast="numpy"/>
			<input>
				<port id="0">
					<dim>1</dim>
					<dim>96</dim>
					<dim>20</dim>
					<dim>10</dim>
				</port>
				<port id="1"/>
				<port id="2"/>
				<port id="3"/>
				<port id="4"/>
			</input>
			<output>
				<port id="5" precision="FP32">
					<dim>1</dim>
					<dim>96</dim>
					<dim>20</dim>
					<dim>10</dim>
				</port>
			</output>
		</layer>
		<layer id="415" name="318/WithoutBiases/fq_weights_1/scale946915250" type="Const" version="opset1">
			<data offset="61235" size="256" shape="64,1,1,1" element_type="f32"/>
			<output>
				<port id="0" precision="FP32">
					<dim>64</dim>
					<dim>1</dim>
					<dim>1</dim>
					<dim>1</dim>
				</port>
			</output>
		</layer>
		<layer id="416" name="526517542/restored_convert/quantized946114467" type="Const" version="opset1">
			<data offset="61491" size="6144" shape="64,96,1,1" element_type="i8"/>
			<output>
				<port id="0" precision="I8">
					<dim>64</dim>
					<dim>96</dim>
					<dim>1</dim>
					<dim>1</dim>
				</port>
			</output>
		</layer>
		<layer id="417" name="526517542/restored_convert/quantized/to_f32" type="Convert" version="opset1">
			<data destination_type="f32"/>
			<input>
				<port id="0">
					<dim>64</dim>
					<dim>96</dim>
					<dim>1</dim>
					<dim>1</dim>
				</port>
			</input>
			<output>
				<port id="1" precision="FP32">
					<dim>64</dim>
					<dim>96</dim>
					<dim>1</dim>
					<dim>1</dim>
				</port>
			</output>
		</layer>
		<layer id="418" name="318/WithoutBiases/fq_weights_1/mulpiply_by_scale" type="Multiply" version="opset1">
			<data auto_broadcast="numpy"/>
			<input>
				<port id="0">
					<dim>64</dim>
					<dim>96</dim>
					<dim>1</dim>
					<dim>1</dim>
				</port>
				<port id="1">
					<dim>64</dim>
					<dim>1</dim>
					<dim>1</dim>
					<dim>1</dim>
				</port>
			</input>
			<output>
				<port id="2" precision="FP32">
					<dim>64</dim>
					<dim>96</dim>
					<dim>1</dim>
					<dim>1</dim>
				</port>
			</output>
		</layer>
		<layer id="419" name="318/WithoutBiases" type="Convolution" version="opset1">
			<data auto_pad="explicit" strides="1,1" dilations="1,1" pads_begin="0,0" pads_end="0,0"/>
			<input>
				<port id="0">
					<dim>1</dim>
					<dim>96</dim>
					<dim>20</dim>
					<dim>10</dim>
				</port>
				<port id="1">
					<dim>64</dim>
					<dim>96</dim>
					<dim>1</dim>
					<dim>1</dim>
				</port>
			</input>
			<output>
				<port id="2" precision="FP32">
					<dim>1</dim>
					<dim>64</dim>
					<dim>20</dim>
					<dim>10</dim>
				</port>
			</output>
		</layer>
		<layer id="420" name="Reshape_94965414854" type="Const" version="opset1">
			<data offset="67635" size="128" shape="1,64,1,1" element_type="f16"/>
			<output>
				<port id="0" precision="FP16">
					<dim>1</dim>
					<dim>64</dim>
					<dim>1</dim>
					<dim>1</dim>
				</port>
			</output>
		</layer>
		<layer id="421" name="Reshape_9496547543/restored_convert" type="Convert" version="opset1">
			<data destination_type="f32"/>
			<rt_info>
				<attribute name="decompression" version="0"/>
			</rt_info>
			<input>
				<port id="0">
					<dim>1</dim>
					<dim>64</dim>
					<dim>1</dim>
					<dim>1</dim>
				</port>
			</input>
			<output>
				<port id="1" precision="FP32">
					<dim>1</dim>
					<dim>64</dim>
					<dim>1</dim>
					<dim>1</dim>
				</port>
			</output>
		</layer>
		<layer id="422" name="318" type="Add" version="opset1">
			<data auto_broadcast="numpy"/>
			<input>
				<port id="0">
					<dim>1</dim>
					<dim>64</dim>
					<dim>20</dim>
					<dim>10</dim>
				</port>
				<port id="1">
					<dim>1</dim>
					<dim>64</dim>
					<dim>1</dim>
					<dim>1</dim>
				</port>
			</input>
			<output>
				<port id="2" precision="FP32" names="318">
					<dim>1</dim>
					<dim>64</dim>
					<dim>20</dim>
					<dim>10</dim>
				</port>
			</output>
		</layer>
		<layer id="423" name="320/fq_input_0" type="FakeQuantize" version="opset1">
			<data levels="256" auto_broadcast="numpy"/>
			<input>
				<port id="0">
					<dim>1</dim>
					<dim>64</dim>
					<dim>20</dim>
					<dim>10</dim>
				</port>
				<port id="1"/>
				<port id="2"/>
				<port id="3"/>
				<port id="4"/>
			</input>
			<output>
				<port id="5" precision="FP32">
					<dim>1</dim>
					<dim>64</dim>
					<dim>20</dim>
					<dim>10</dim>
				</port>
			</output>
		</layer>
		<layer id="424" name="2639264313840" type="Const" version="opset1">
			<data offset="67763" size="4" shape="" element_type="f32"/>
			<output>
				<port id="0" precision="FP32"/>
			</output>
		</layer>
		<layer id="425" name="2640264413873" type="Const" version="opset1">
			<data offset="67767" size="4" shape="" element_type="f32"/>
			<output>
				<port id="0" precision="FP32"/>
			</output>
		</layer>
		<layer id="426" name="2641264514659" type="Const" version="opset1">
			<data offset="67763" size="4" shape="" element_type="f32"/>
			<output>
				<port id="0" precision="FP32"/>
			</output>
		</layer>
		<layer id="427" name="2642264614683" type="Const" version="opset1">
			<data offset="67767" size="4" shape="" element_type="f32"/>
			<output>
				<port id="0" precision="FP32"/>
			</output>
		</layer>
		<layer id="428" name="2759276313735" type="Const" version="opset1">
			<data offset="67771" size="4" shape="" element_type="f32"/>
			<output>
				<port id="0" precision="FP32"/>
			</output>
		</layer>
		<layer id="429" name="2760276413702" type="Const" version="opset1">
			<data offset="67775" size="4" shape="" element_type="f32"/>
			<output>
				<port id="0" precision="FP32"/>
			</output>
		</layer>
		<layer id="430" name="2761276515241" type="Const" version="opset1">
			<data offset="67771" size="4" shape="" element_type="f32"/>
			<output>
				<port id="0" precision="FP32"/>
			</output>
		</layer>
		<layer id="431" name="2762276613594" type="Const" version="opset1">
			<data offset="67775" size="4" shape="" element_type="f32"/>
			<output>
				<port id="0" precision="FP32"/>
			</output>
		</layer>
		<layer id="432" name="319/WithoutBiases/fq_input_0" type="FakeQuantize" version="opset1">
			<data levels="256" auto_broadcast="numpy"/>
			<input>
				<port id="0">
					<dim>1</dim>
					<dim>64</dim>
					<dim>40</dim>
					<dim>20</dim>
				</port>
				<port id="1"/>
				<port id="2"/>
				<port id="3"/>
				<port id="4"/>
			</input>
			<output>
				<port id="5" precision="FP32">
					<dim>1</dim>
					<dim>64</dim>
					<dim>40</dim>
					<dim>20</dim>
				</port>
			</output>
		</layer>
		<layer id="433" name="319/WithoutBiases/fq_weights_1/scale982914044" type="Const" version="opset1">
			<data offset="67779" size="256" shape="64,1,1,1" element_type="f32"/>
			<output>
				<port id="0" precision="FP32">
					<dim>64</dim>
					<dim>1</dim>
					<dim>1</dim>
					<dim>1</dim>
				</port>
			</output>
		</layer>
		<layer id="434" name="546577544/restored_convert/quantized982114014" type="Const" version="opset1">
			<data offset="68035" size="4096" shape="64,64,1,1" element_type="i8"/>
			<output>
				<port id="0" precision="I8">
					<dim>64</dim>
					<dim>64</dim>
					<dim>1</dim>
					<dim>1</dim>
				</port>
			</output>
		</layer>
		<layer id="435" name="546577544/restored_convert/quantized/to_f32" type="Convert" version="opset1">
			<data destination_type="f32"/>
			<input>
				<port id="0">
					<dim>64</dim>
					<dim>64</dim>
					<dim>1</dim>
					<dim>1</dim>
				</port>
			</input>
			<output>
				<port id="1" precision="FP32">
					<dim>64</dim>
					<dim>64</dim>
					<dim>1</dim>
					<dim>1</dim>
				</port>
			</output>
		</layer>
		<layer id="436" name="319/WithoutBiases/fq_weights_1/mulpiply_by_scale" type="Multiply" version="opset1">
			<data auto_broadcast="numpy"/>
			<input>
				<port id="0">
					<dim>64</dim>
					<dim>64</dim>
					<dim>1</dim>
					<dim>1</dim>
				</port>
				<port id="1">
					<dim>64</dim>
					<dim>1</dim>
					<dim>1</dim>
					<dim>1</dim>
				</port>
			</input>
			<output>
				<port id="2" precision="FP32">
					<dim>64</dim>
					<dim>64</dim>
					<dim>1</dim>
					<dim>1</dim>
				</port>
			</output>
		</layer>
		<layer id="437" name="319/WithoutBiases" type="Convolution" version="opset1">
			<data auto_pad="explicit" strides="2,2" dilations="1,1" pads_begin="0,0" pads_end="0,0"/>
			<input>
				<port id="0">
					<dim>1</dim>
					<dim>64</dim>
					<dim>40</dim>
					<dim>20</dim>
				</port>
				<port id="1">
					<dim>64</dim>
					<dim>64</dim>
					<dim>1</dim>
					<dim>1</dim>
				</port>
			</input>
			<output>
				<port id="2" precision="FP32">
					<dim>1</dim>
					<dim>64</dim>
					<dim>20</dim>
					<dim>10</dim>
				</port>
			</output>
		</layer>
		<layer id="438" name="Reshape_99766014680" type="Const" version="opset1">
			<data offset="72131" size="128" shape="1,64,1,1" element_type="f16"/>
			<output>
				<port id="0" precision="FP16">
					<dim>1</dim>
					<dim>64</dim>
					<dim>1</dim>
					<dim>1</dim>
				</port>
			</output>
		</layer>
		<layer id="439" name="Reshape_9976607545/restored_convert" type="Convert" version="opset1">
			<data destination_type="f32"/>
			<rt_info>
				<attribute name="decompression" version="0"/>
			</rt_info>
			<input>
				<port id="0">
					<dim>1</dim>
					<dim>64</dim>
					<dim>1</dim>
					<dim>1</dim>
				</port>
			</input>
			<output>
				<port id="1" precision="FP32">
					<dim>1</dim>
					<dim>64</dim>
					<dim>1</dim>
					<dim>1</dim>
				</port>
			</output>
		</layer>
		<layer id="440" name="319" type="Add" version="opset1">
			<data auto_broadcast="numpy"/>
			<input>
				<port id="0">
					<dim>1</dim>
					<dim>64</dim>
					<dim>20</dim>
					<dim>10</dim>
				</port>
				<port id="1">
					<dim>1</dim>
					<dim>64</dim>
					<dim>1</dim>
					<dim>1</dim>
				</port>
			</input>
			<output>
				<port id="2" precision="FP32" names="319">
					<dim>1</dim>
					<dim>64</dim>
					<dim>20</dim>
					<dim>10</dim>
				</port>
			</output>
		</layer>
		<layer id="441" name="320/fq_input_1" type="FakeQuantize" version="opset1">
			<data levels="256" auto_broadcast="numpy"/>
			<input>
				<port id="0">
					<dim>1</dim>
					<dim>64</dim>
					<dim>20</dim>
					<dim>10</dim>
				</port>
				<port id="1"/>
				<port id="2"/>
				<port id="3"/>
				<port id="4"/>
			</input>
			<output>
				<port id="5" precision="FP32">
					<dim>1</dim>
					<dim>64</dim>
					<dim>20</dim>
					<dim>10</dim>
				</port>
			</output>
		</layer>
		<layer id="442" name="320" type="Add" version="opset1">
			<data auto_broadcast="numpy"/>
			<input>
				<port id="0">
					<dim>1</dim>
					<dim>64</dim>
					<dim>20</dim>
					<dim>10</dim>
				</port>
				<port id="1">
					<dim>1</dim>
					<dim>64</dim>
					<dim>20</dim>
					<dim>10</dim>
				</port>
			</input>
			<output>
				<port id="2" precision="FP32" names="320">
					<dim>1</dim>
					<dim>64</dim>
					<dim>20</dim>
					<dim>10</dim>
				</port>
			</output>
		</layer>
		<layer id="443" name="321" type="ReLU" version="opset1">
			<input>
				<port id="0">
					<dim>1</dim>
					<dim>64</dim>
					<dim>20</dim>
					<dim>10</dim>
				</port>
			</input>
			<output>
				<port id="1" precision="FP32" names="321">
					<dim>1</dim>
					<dim>64</dim>
					<dim>20</dim>
					<dim>10</dim>
				</port>
			</output>
		</layer>
		<layer id="444" name="322/WithoutBiases/fq_input_0" type="FakeQuantize" version="opset1">
			<data levels="256" auto_broadcast="numpy"/>
			<input>
				<port id="0">
					<dim>1</dim>
					<dim>64</dim>
					<dim>20</dim>
					<dim>10</dim>
				</port>
				<port id="1"/>
				<port id="2"/>
				<port id="3"/>
				<port id="4"/>
			</input>
			<output>
				<port id="5" precision="FP32">
					<dim>1</dim>
					<dim>64</dim>
					<dim>20</dim>
					<dim>10</dim>
				</port>
			</output>
		</layer>
		<layer id="445" name="322/WithoutBiases/fq_weights_1/scale973914695" type="Const" version="opset1">
			<data offset="72259" size="192" shape="48,1,1,1" element_type="f32"/>
			<output>
				<port id="0" precision="FP32">
					<dim>48</dim>
					<dim>1</dim>
					<dim>1</dim>
					<dim>1</dim>
				</port>
			</output>
		</layer>
		<layer id="446" name="566657546/restored_convert/quantized973115157" type="Const" version="opset1">
			<data offset="72451" size="3072" shape="48,64,1,1" element_type="i8"/>
			<output>
				<port id="0" precision="I8">
					<dim>48</dim>
					<dim>64</dim>
					<dim>1</dim>
					<dim>1</dim>
				</port>
			</output>
		</layer>
		<layer id="447" name="566657546/restored_convert/quantized/to_f32" type="Convert" version="opset1">
			<data destination_type="f32"/>
			<input>
				<port id="0">
					<dim>48</dim>
					<dim>64</dim>
					<dim>1</dim>
					<dim>1</dim>
				</port>
			</input>
			<output>
				<port id="1" precision="FP32">
					<dim>48</dim>
					<dim>64</dim>
					<dim>1</dim>
					<dim>1</dim>
				</port>
			</output>
		</layer>
		<layer id="448" name="322/WithoutBiases/fq_weights_1/mulpiply_by_scale" type="Multiply" version="opset1">
			<data auto_broadcast="numpy"/>
			<input>
				<port id="0">
					<dim>48</dim>
					<dim>64</dim>
					<dim>1</dim>
					<dim>1</dim>
				</port>
				<port id="1">
					<dim>48</dim>
					<dim>1</dim>
					<dim>1</dim>
					<dim>1</dim>
				</port>
			</input>
			<output>
				<port id="2" precision="FP32">
					<dim>48</dim>
					<dim>64</dim>
					<dim>1</dim>
					<dim>1</dim>
				</port>
			</output>
		</layer>
		<layer id="449" name="322/WithoutBiases" type="Convolution" version="opset1">
			<data auto_pad="explicit" strides="1,1" dilations="1,1" pads_begin="0,0" pads_end="0,0"/>
			<input>
				<port id="0">
					<dim>1</dim>
					<dim>64</dim>
					<dim>20</dim>
					<dim>10</dim>
				</port>
				<port id="1">
					<dim>48</dim>
					<dim>64</dim>
					<dim>1</dim>
					<dim>1</dim>
				</port>
			</input>
			<output>
				<port id="2" precision="FP32">
					<dim>1</dim>
					<dim>48</dim>
					<dim>20</dim>
					<dim>10</dim>
				</port>
			</output>
		</layer>
		<layer id="450" name="Reshape_104766814731" type="Const" version="opset1">
			<data offset="75523" size="96" shape="1,48,1,1" element_type="f16"/>
			<output>
				<port id="0" precision="FP16">
					<dim>1</dim>
					<dim>48</dim>
					<dim>1</dim>
					<dim>1</dim>
				</port>
			</output>
		</layer>
		<layer id="451" name="Reshape_10476687547/restored_convert" type="Convert" version="opset1">
			<data destination_type="f32"/>
			<rt_info>
				<attribute name="decompression" version="0"/>
			</rt_info>
			<input>
				<port id="0">
					<dim>1</dim>
					<dim>48</dim>
					<dim>1</dim>
					<dim>1</dim>
				</port>
			</input>
			<output>
				<port id="1" precision="FP32">
					<dim>1</dim>
					<dim>48</dim>
					<dim>1</dim>
					<dim>1</dim>
				</port>
			</output>
		</layer>
		<layer id="452" name="322" type="Add" version="opset1">
			<data auto_broadcast="numpy"/>
			<input>
				<port id="0">
					<dim>1</dim>
					<dim>48</dim>
					<dim>20</dim>
					<dim>10</dim>
				</port>
				<port id="1">
					<dim>1</dim>
					<dim>48</dim>
					<dim>1</dim>
					<dim>1</dim>
				</port>
			</input>
			<output>
				<port id="2" precision="FP32" names="322">
					<dim>1</dim>
					<dim>48</dim>
					<dim>20</dim>
					<dim>10</dim>
				</port>
			</output>
		</layer>
		<layer id="453" name="323" type="ReLU" version="opset1">
			<input>
				<port id="0">
					<dim>1</dim>
					<dim>48</dim>
					<dim>20</dim>
					<dim>10</dim>
				</port>
			</input>
			<output>
				<port id="1" precision="FP32" names="323">
					<dim>1</dim>
					<dim>48</dim>
					<dim>20</dim>
					<dim>10</dim>
				</port>
			</output>
		</layer>
		<layer id="454" name="324/WithoutBiases/fq_input_0" type="FakeQuantize" version="opset1">
			<data levels="256" auto_broadcast="numpy"/>
			<input>
				<port id="0">
					<dim>1</dim>
					<dim>48</dim>
					<dim>20</dim>
…
		<edge from-layer="503" from-port="2" to-layer="504" to-port="0"/>
		<edge from-layer="504" from-port="1" to-layer="505" to-port="0"/>
		<edge from-layer="85" from-port="0" to-layer="505" to-port="1"/>
		<edge from-layer="86" from-port="0" to-layer="505" to-port="2"/>
		<edge from-layer="87" from-port="0" to-layer="505" to-port="3"/>
		<edge from-layer="88" from-port="0" to-layer="505" to-port="4"/>
		<edge from-layer="507" from-port="0" to-layer="508" to-port="0"/>
		<edge from-layer="508" from-port="1" to-layer="509" to-port="0"/>
		<edge from-layer="506" from-port="0" to-layer="509" to-port="1"/>
		<edge from-layer="505" from-port="5" to-layer="510" to-port="0"/>
		<edge from-layer="509" from-port="2" to-layer="510" to-port="1"/>
		<edge from-layer="511" from-port="0" to-layer="512" to-port="0"/>
		<edge from-layer="510" from-port="2" to-layer="513" to-port="0"/>
		<edge from-layer="512" from-port="1" to-layer="513" to-port="1"/>
		<edge from-layer="513" from-port="2" to-layer="514" to-port="0"/>
		<edge from-layer="81" from-port="0" to-layer="514" to-port="1"/>
		<edge from-layer="82" from-port="0" to-layer="514" to-port="2"/>
		<edge from-layer="83" from-port="0" to-layer="514" to-port="3"/>
		<edge from-layer="84" from-port="0" to-layer="514" to-port="4"/>
		<edge from-layer="516" from-port="0" to-layer="517" to-port="0"/>
		<edge from-layer="517" from-port="1" to-layer="518" to-port="0"/>
		<edge from-layer="515" from-port="0" to-layer="518" to-port="1"/>
		<edge from-layer="514" from-port="5" to-layer="519" to-port="0"/>
		<edge from-layer="518" from-port="2" to-layer="519" to-port="1"/>
		<edge from-layer="519" from-port="2" to-layer="520" to-port="0"/>
		<edge from-layer="77" from-port="0" to-layer="520" to-port="1"/>
		<edge from-layer="78" from-port="0" to-layer="520" to-port="2"/>
		<edge from-layer="79" from-port="0" to-layer="520" to-port="3"/>
		<edge from-layer="80" from-port="0" to-layer="520" to-port="4"/>
		<edge from-layer="514" from-port="5" to-layer="521" to-port="0"/>
		<edge from-layer="520" from-port="5" to-layer="521" to-port="1"/>
		<edge from-layer="522" from-port="0" to-layer="523" to-port="0"/>
		<edge from-layer="521" from-port="2" to-layer="524" to-port="0"/>
		<edge from-layer="523" from-port="1" to-layer="524" to-port="1"/>
		<edge from-layer="525" from-port="0" to-layer="526" to-port="0"/>
		<edge from-layer="524" from-port="2" to-layer="527" to-port="0"/>
		<edge from-layer="526" from-port="1" to-layer="527" to-port="1"/>
		<edge from-layer="527" from-port="2" to-layer="528" to-port="0"/>
		<edge from-layer="528" from-port="1" to-layer="529" to-port="0"/>
		<edge from-layer="73" from-port="0" to-layer="529" to-port="1"/>
		<edge from-layer="74" from-port="0" to-layer="529" to-port="2"/>
		<edge from-layer="75" from-port="0" to-layer="529" to-port="3"/>
		<edge from-layer="76" from-port="0" to-layer="529" to-port="4"/>
		<edge from-layer="531" from-port="0" to-layer="532" to-port="0"/>
		<edge from-layer="532" from-port="1" to-layer="533" to-port="0"/>
		<edge from-layer="530" from-port="0" to-layer="533" to-port="1"/>
		<edge from-layer="529" from-port="5" to-layer="534" to-port="0"/>
		<edge from-layer="533" from-port="2" to-layer="534" to-port="1"/>
		<edge from-layer="535" from-port="0" to-layer="536" to-port="0"/>
		<edge from-layer="534" from-port="2" to-layer="537" to-port="0"/>
		<edge from-layer="536" from-port="1" to-layer="537" to-port="1"/>
		<edge from-layer="537" from-port="2" to-layer="538" to-port="0"/>
		<edge from-layer="69" from-port="0" to-layer="538" to-port="1"/>
		<edge from-layer="70" from-port="0" to-layer="538" to-port="2"/>
		<edge from-layer="71" from-port="0" to-layer="538" to-port="3"/>
		<edge from-layer="72" from-port="0" to-layer="538" to-port="4"/>
		<edge from-layer="493" from-port="2" to-layer="543" to-port="0"/>
		<edge from-layer="539" from-port="0" to-layer="543" to-port="1"/>
		<edge from-layer="540" from-port="0" to-layer="543" to-port="2"/>
		<edge from-layer="541" from-port="0" to-layer="543" to-port="3"/>
		<edge from-layer="542" from-port="0" to-layer="543" to-port="4"/>
		<edge from-layer="538" from-port="5" to-layer="544" to-port="0"/>
		<edge from-layer="543" from-port="5" to-layer="544" to-port="1"/>
		<edge from-layer="544" from-port="2" to-layer="545" to-port="0"/>
		<edge from-layer="545" from-port="1" to-layer="546" to-port="0"/>
		<edge from-layer="65" from-port="0" to-layer="546" to-port="1"/>
		<edge from-layer="66" from-port="0" to-layer="546" to-port="2"/>
		<edge from-layer="67" from-port="0" to-layer="546" to-port="3"/>
		<edge from-layer="68" from-port="0" to-layer="546" to-port="4"/>
		<edge from-layer="548" from-port="0" to-layer="549" to-port="0"/>
		<edge from-layer="549" from-port="1" to-layer="550" to-port="0"/>
		<edge from-layer="547" from-port="0" to-layer="550" to-port="1"/>
		<edge from-layer="546" from-port="5" to-layer="551" to-port="0"/>
		<edge from-layer="550" from-port="2" to-layer="551" to-port="1"/>
		<edge from-layer="552" from-port="0" to-layer="553" to-port="0"/>
		<edge from-layer="551" from-port="2" to-layer="554" to-port="0"/>
		<edge from-layer="553" from-port="1" to-layer="554" to-port="1"/>
		<edge from-layer="554" from-port="2" to-layer="555" to-port="0"/>
		<edge from-layer="555" from-port="1" to-layer="556" to-port="0"/>
		<edge from-layer="61" from-port="0" to-layer="556" to-port="1"/>
		<edge from-layer="62" from-port="0" to-layer="556" to-port="2"/>
		<edge from-layer="63" from-port="0" to-layer="556" to-port="3"/>
		<edge from-layer="64" from-port="0" to-layer="556" to-port="4"/>
		<edge from-layer="558" from-port="0" to-layer="559" to-port="0"/>
		<edge from-layer="559" from-port="1" to-layer="560" to-port="0"/>
		<edge from-layer="557" from-port="0" to-layer="560" to-port="1"/>
		<edge from-layer="556" from-port="5" to-layer="561" to-port="0"/>
		<edge from-layer="560" from-port="2" to-layer="561" to-port="1"/>
		<edge from-layer="562" from-port="0" to-layer="563" to-port="0"/>
		<edge from-layer="561" from-port="2" to-layer="564" to-port="0"/>
		<edge from-layer="563" from-port="1" to-layer="564" to-port="1"/>
		<edge from-layer="564" from-port="2" to-layer="565" to-port="0"/>
		<edge from-layer="57" from-port="0" to-layer="565" to-port="1"/>
		<edge from-layer="58" from-port="0" to-layer="565" to-port="2"/>
		<edge from-layer="59" from-port="0" to-layer="565" to-port="3"/>
		<edge from-layer="60" from-port="0" to-layer="565" to-port="4"/>
		<edge from-layer="567" from-port="0" to-layer="568" to-port="0"/>
		<edge from-layer="568" from-port="1" to-layer="569" to-port="0"/>
		<edge from-layer="566" from-port="0" to-layer="569" to-port="1"/>
		<edge from-layer="565" from-port="5" to-layer="570" to-port="0"/>
		<edge from-layer="569" from-port="2" to-layer="570" to-port="1"/>
		<edge from-layer="570" from-port="2" to-layer="571" to-port="0"/>
		<edge from-layer="53" from-port="0" to-layer="571" to-port="1"/>
		<edge from-layer="54" from-port="0" to-layer="571" to-port="2"/>
		<edge from-layer="55" from-port="0" to-layer="571" to-port="3"/>
		<edge from-layer="56" from-port="0" to-layer="571" to-port="4"/>
		<edge from-layer="565" from-port="5" to-layer="572" to-port="0"/>
		<edge from-layer="571" from-port="5" to-layer="572" to-port="1"/>
		<edge from-layer="573" from-port="0" to-layer="574" to-port="0"/>
		<edge from-layer="572" from-port="2" to-layer="575" to-port="0"/>
		<edge from-layer="574" from-port="1" to-layer="575" to-port="1"/>
		<edge from-layer="576" from-port="0" to-layer="577" to-port="0"/>
		<edge from-layer="575" from-port="2" to-layer="578" to-port="0"/>
		<edge from-layer="577" from-port="1" to-layer="578" to-port="1"/>
		<edge from-layer="578" from-port="2" to-layer="579" to-port="0"/>
		<edge from-layer="579" from-port="1" to-layer="580" to-port="0"/>
		<edge from-layer="49" from-port="0" to-layer="580" to-port="1"/>
		<edge from-layer="50" from-port="0" to-layer="580" to-port="2"/>
		<edge from-layer="51" from-port="0" to-layer="580" to-port="3"/>
		<edge from-layer="52" from-port="0" to-layer="580" to-port="4"/>
		<edge from-layer="582" from-port="0" to-layer="583" to-port="0"/>
		<edge from-layer="583" from-port="1" to-layer="584" to-port="0"/>
		<edge from-layer="581" from-port="0" to-layer="584" to-port="1"/>
		<edge from-layer="580" from-port="5" to-layer="585" to-port="0"/>
		<edge from-layer="584" from-port="2" to-layer="585" to-port="1"/>
		<edge from-layer="586" from-port="0" to-layer="587" to-port="0"/>
		<edge from-layer="585" from-port="2" to-layer="588" to-port="0"/>
		<edge from-layer="587" from-port="1" to-layer="588" to-port="1"/>
		<edge from-layer="588" from-port="2" to-layer="589" to-port="0"/>
		<edge from-layer="45" from-port="0" to-layer="589" to-port="1"/>
		<edge from-layer="46" from-port="0" to-layer="589" to-port="2"/>
		<edge from-layer="47" from-port="0" to-layer="589" to-port="3"/>
		<edge from-layer="48" from-port="0" to-layer="589" to-port="4"/>
		<edge from-layer="544" from-port="2" to-layer="594" to-port="0"/>
		<edge from-layer="590" from-port="0" to-layer="594" to-port="1"/>
		<edge from-layer="591" from-port="0" to-layer="594" to-port="2"/>
		<edge from-layer="592" from-port="0" to-layer="594" to-port="3"/>
		<edge from-layer="593" from-port="0" to-layer="594" to-port="4"/>
		<edge from-layer="589" from-port="5" to-layer="595" to-port="0"/>
		<edge from-layer="594" from-port="5" to-layer="595" to-port="1"/>
		<edge from-layer="595" from-port="2" to-layer="596" to-port="0"/>
		<edge from-layer="596" from-port="1" to-layer="597" to-port="0"/>
		<edge from-layer="41" from-port="0" to-layer="597" to-port="1"/>
		<edge from-layer="42" from-port="0" to-layer="597" to-port="2"/>
		<edge from-layer="43" from-port="0" to-layer="597" to-port="3"/>
		<edge from-layer="44" from-port="0" to-layer="597" to-port="4"/>
		<edge from-layer="597" from-port="5" to-layer="598" to-port="0"/>
		<edge from-layer="650" from-port="0" to-layer="651" to-port="0"/>
		<edge from-layer="651" from-port="1" to-layer="652" to-port="0"/>
		<edge from-layer="649" from-port="0" to-layer="652" to-port="1"/>
		<edge from-layer="597" from-port="5" to-layer="653" to-port="0"/>
		<edge from-layer="652" from-port="2" to-layer="653" to-port="1"/>
		<edge from-layer="654" from-port="0" to-layer="655" to-port="0"/>
		<edge from-layer="653" from-port="2" to-layer="656" to-port="0"/>
		<edge from-layer="655" from-port="1" to-layer="656" to-port="1"/>
		<edge from-layer="656" from-port="2" to-layer="657" to-port="0"/>
		<edge from-layer="657" from-port="1" to-layer="658" to-port="0"/>
		<edge from-layer="645" from-port="0" to-layer="658" to-port="1"/>
		<edge from-layer="646" from-port="0" to-layer="658" to-port="2"/>
		<edge from-layer="647" from-port="0" to-layer="658" to-port="3"/>
		<edge from-layer="648" from-port="0" to-layer="658" to-port="4"/>
		<edge from-layer="668" from-port="0" to-layer="669" to-port="0"/>
		<edge from-layer="669" from-port="1" to-layer="670" to-port="0"/>
		<edge from-layer="667" from-port="0" to-layer="670" to-port="1"/>
		<edge from-layer="597" from-port="5" to-layer="671" to-port="0"/>
		<edge from-layer="670" from-port="2" to-layer="671" to-port="1"/>
		<edge from-layer="672" from-port="0" to-layer="673" to-port="0"/>
		<edge from-layer="671" from-port="2" to-layer="674" to-port="0"/>
		<edge from-layer="673" from-port="1" to-layer="674" to-port="1"/>
		<edge from-layer="674" from-port="2" to-layer="675" to-port="0"/>
		<edge from-layer="675" from-port="1" to-layer="676" to-port="0"/>
		<edge from-layer="663" from-port="0" to-layer="676" to-port="1"/>
		<edge from-layer="664" from-port="0" to-layer="676" to-port="2"/>
		<edge from-layer="665" from-port="0" to-layer="676" to-port="3"/>
		<edge from-layer="666" from-port="0" to-layer="676" to-port="4"/>
		<edge from-layer="678" from-port="0" to-layer="679" to-port="0"/>
		<edge from-layer="679" from-port="1" to-layer="680" to-port="0"/>
		<edge from-layer="677" from-port="0" to-layer="680" to-port="1"/>
		<edge from-layer="676" from-port="5" to-layer="681" to-port="0"/>
		<edge from-layer="680" from-port="2" to-layer="681" to-port="1"/>
		<edge from-layer="682" from-port="0" to-layer="683" to-port="0"/>
		<edge from-layer="681" from-port="2" to-layer="684" to-port="0"/>
		<edge from-layer="683" from-port="1" to-layer="684" to-port="1"/>
		<edge from-layer="684" from-port="2" to-layer="685" to-port="0"/>
		<edge from-layer="685" from-port="1" to-layer="686" to-port="0"/>
		<edge from-layer="659" from-port="0" to-layer="686" to-port="1"/>
		<edge from-layer="660" from-port="0" to-layer="686" to-port="2"/>
		<edge from-layer="661" from-port="0" to-layer="686" to-port="3"/>
		<edge from-layer="662" from-port="0" to-layer="686" to-port="4"/>
		<edge from-layer="700" from-port="0" to-layer="701" to-port="0"/>
		<edge from-layer="701" from-port="1" to-layer="702" to-port="0"/>
		<edge from-layer="699" from-port="0" to-layer="702" to-port="1"/>
		<edge from-layer="597" from-port="5" to-layer="703" to-port="0"/>
		<edge from-layer="702" from-port="2" to-layer="703" to-port="1"/>
		<edge from-layer="704" from-port="0" to-layer="705" to-port="0"/>
		<edge from-layer="703" from-port="2" to-layer="706" to-port="0"/>
		<edge from-layer="705" from-port="1" to-layer="706" to-port="1"/>
		<edge from-layer="706" from-port="2" to-layer="707" to-port="0"/>
		<edge from-layer="707" from-port="1" to-layer="708" to-port="0"/>
		<edge from-layer="695" from-port="0" to-layer="708" to-port="1"/>
		<edge from-layer="696" from-port="0" to-layer="708" to-port="2"/>
		<edge from-layer="697" from-port="0" to-layer="708" to-port="3"/>
		<edge from-layer="698" from-port="0" to-layer="708" to-port="4"/>
		<edge from-layer="710" from-port="0" to-layer="711" to-port="0"/>
		<edge from-layer="711" from-port="1" to-layer="712" to-port="0"/>
		<edge from-layer="709" from-port="0" to-layer="712" to-port="1"/>
		<edge from-layer="708" from-port="5" to-layer="713" to-port="0"/>
		<edge from-layer="712" from-port="2" to-layer="713" to-port="1"/>
		<edge from-layer="714" from-port="0" to-layer="715" to-port="0"/>
		<edge from-layer="713" from-port="2" to-layer="716" to-port="0"/>
		<edge from-layer="715" from-port="1" to-layer="716" to-port="1"/>
		<edge from-layer="716" from-port="2" to-layer="717" to-port="0"/>
		<edge from-layer="717" from-port="1" to-layer="718" to-port="0"/>
		<edge from-layer="691" from-port="0" to-layer="718" to-port="1"/>
		<edge from-layer="692" from-port="0" to-layer="718" to-port="2"/>
		<edge from-layer="693" from-port="0" to-layer="718" to-port="3"/>
		<edge from-layer="694" from-port="0" to-layer="718" to-port="4"/>
		<edge from-layer="720" from-port="0" to-layer="721" to-port="0"/>
		<edge from-layer="721" from-port="1" to-layer="722" to-port="0"/>
		<edge from-layer="719" from-port="0" to-layer="722" to-port="1"/>
		<edge from-layer="718" from-port="5" to-layer="723" to-port="0"/>
		<edge from-layer="722" from-port="2" to-layer="723" to-port="1"/>
		<edge from-layer="724" from-port="0" to-layer="725" to-port="0"/>
		<edge from-layer="723" from-port="2" to-layer="726" to-port="0"/>
		<edge from-layer="725" from-port="1" to-layer="726" to-port="1"/>
		<edge from-layer="726" from-port="2" to-layer="727" to-port="0"/>
		<edge from-layer="727" from-port="1" to-layer="728" to-port="0"/>
		<edge from-layer="687" from-port="0" to-layer="728" to-port="1"/>
		<edge from-layer="688" from-port="0" to-layer="728" to-port="2"/>
		<edge from-layer="689" from-port="0" to-layer="728" to-port="3"/>
		<edge from-layer="690" from-port="0" to-layer="728" to-port="4"/>
		<edge from-layer="734" from-port="0" to-layer="735" to-port="0"/>
		<edge from-layer="735" from-port="1" to-layer="736" to-port="0"/>
		<edge from-layer="733" from-port="0" to-layer="736" to-port="1"/>
		<edge from-layer="598" from-port="1" to-layer="737" to-port="0"/>
		<edge from-layer="736" from-port="2" to-layer="737" to-port="1"/>
		<edge from-layer="738" from-port="0" to-layer="739" to-port="0"/>
		<edge from-layer="737" from-port="2" to-layer="740" to-port="0"/>
		<edge from-layer="739" from-port="1" to-layer="740" to-port="1"/>
		<edge from-layer="740" from-port="2" to-layer="741" to-port="0"/>
		<edge from-layer="741" from-port="1" to-layer="742" to-port="0"/>
		<edge from-layer="729" from-port="0" to-layer="742" to-port="1"/>
		<edge from-layer="730" from-port="0" to-layer="742" to-port="2"/>
		<edge from-layer="731" from-port="0" to-layer="742" to-port="3"/>
		<edge from-layer="732" from-port="0" to-layer="742" to-port="4"/>
		<edge from-layer="658" from-port="5" to-layer="743" to-port="0"/>
		<edge from-layer="686" from-port="5" to-layer="743" to-port="1"/>
		<edge from-layer="728" from-port="5" to-layer="743" to-port="2"/>
		<edge from-layer="742" from-port="5" to-layer="743" to-port="3"/>
		<edge from-layer="745" from-port="0" to-layer="746" to-port="0"/>
		<edge from-layer="746" from-port="1" to-layer="747" to-port="0"/>
		<edge from-layer="744" from-port="0" to-layer="747" to-port="1"/>
		<edge from-layer="743" from-port="4" to-layer="748" to-port="0"/>
		<edge from-layer="747" from-port="2" to-layer="748" to-port="1"/>
		<edge from-layer="749" from-port="0" to-layer="750" to-port="0"/>
		<edge from-layer="748" from-port="2" to-layer="751" to-port="0"/>
		<edge from-layer="750" from-port="1" to-layer="751" to-port="1"/>
		<edge from-layer="751" from-port="2" to-layer="752" to-port="0"/>
		<edge from-layer="641" from-port="0" to-layer="752" to-port="1"/>
		<edge from-layer="642" from-port="0" to-layer="752" to-port="2"/>
		<edge from-layer="643" from-port="0" to-layer="752" to-port="3"/>
		<edge from-layer="644" from-port="0" to-layer="752" to-port="4"/>
		<edge from-layer="595" from-port="2" to-layer="761" to-port="0"/>
		<edge from-layer="757" from-port="0" to-layer="761" to-port="1"/>
		<edge from-layer="758" from-port="0" to-layer="761" to-port="2"/>
		<edge from-layer="759" from-port="0" to-layer="761" to-port="3"/>
		<edge from-layer="760" from-port="0" to-layer="761" to-port="4"/>
		<edge from-layer="763" from-port="0" to-layer="764" to-port="0"/>
		<edge from-layer="764" from-port="1" to-layer="765" to-port="0"/>
		<edge from-layer="762" from-port="0" to-layer="765" to-port="1"/>
		<edge from-layer="761" from-port="5" to-layer="766" to-port="0"/>
		<edge from-layer="765" from-port="2" to-layer="766" to-port="1"/>
		<edge from-layer="767" from-port="0" to-layer="768" to-port="0"/>
		<edge from-layer="766" from-port="2" to-layer="769" to-port="0"/>
		<edge from-layer="768" from-port="1" to-layer="769" to-port="1"/>
		<edge from-layer="769" from-port="2" to-layer="770" to-port="0"/>
		<edge from-layer="753" from-port="0" to-layer="770" to-port="1"/>
		<edge from-layer="754" from-port="0" to-layer="770" to-port="2"/>
		<edge from-layer="755" from-port="0" to-layer="770" to-port="3"/>
		<edge from-layer="756" from-port="0" to-layer="770" to-port="4"/>
		<edge from-layer="752" from-port="5" to-layer="771" to-port="0"/>
		<edge from-layer="770" from-port="5" to-layer="771" to-port="1"/>
		<edge from-layer="771" from-port="2" to-layer="772" to-port="0"/>
		<edge from-layer="772" from-port="1" to-layer="773" to-port="0"/>
		<edge from-layer="637" from-port="0" to-layer="773" to-port="1"/>
		<edge from-layer="638" from-port="0" to-layer="773" to-port="2"/>
		<edge from-layer="639" from-port="0" to-layer="773" to-port="3"/>
		<edge from-layer="640" from-port="0" to-layer="773" to-port="4"/>
		<edge from-layer="775" from-port="0" to-layer="776" to-port="0"/>
		<edge from-layer="776" from-port="1" to-layer="777" to-port="0"/>
		<edge from-layer="774" from-port="0" to-layer="777" to-port="1"/>
		<edge from-layer="773" from-port="5" to-layer="778" to-port="0"/>
		<edge from-layer="777" from-port="2" to-layer="778" to-port="1"/>
		<edge from-layer="779" from-port="0" to-layer="780" to-port="0"/>
		<edge from-layer="778" from-port="2" to-layer="781" to-port="0"/>
		<edge from-layer="780" from-port="1" to-layer="781" to-port="1"/>
		<edge from-layer="781" from-port="2" to-layer="782" to-port="0"/>
		<edge from-layer="782" from-port="1" to-layer="783" to-port="0"/>
		<edge from-layer="633" from-port="0" to-layer="783" to-port="1"/>
		<edge from-layer="634" from-port="0" to-layer="783" to-port="2"/>
		<edge from-layer="635" from-port="0" to-layer="783" to-port="3"/>
		<edge from-layer="636" from-port="0" to-layer="783" to-port="4"/>
		<edge from-layer="793" from-port="0" to-layer="794" to-port="0"/>
		<edge from-layer="794" from-port="1" to-layer="795" to-port="0"/>
		<edge from-layer="792" from-port="0" to-layer="795" to-port="1"/>
		<edge from-layer="773" from-port="5" to-layer="796" to-port="0"/>
		<edge from-layer="795" from-port="2" to-layer="796" to-port="1"/>
		<edge from-layer="797" from-port="0" to-layer="798" to-port="0"/>
		<edge from-layer="796" from-port="2" to-layer="799" to-port="0"/>
		<edge from-layer="798" from-port="1" to-layer="799" to-port="1"/>
		<edge from-layer="799" from-port="2" to-layer="800" to-port="0"/>
		<edge from-layer="800" from-port="1" to-layer="801" to-port="0"/>
		<edge from-layer="788" from-port="0" to-layer="801" to-port="1"/>
		<edge from-layer="789" from-port="0" to-layer="801" to-port="2"/>
		<edge from-layer="790" from-port="0" to-layer="801" to-port="3"/>
		<edge from-layer="791" from-port="0" to-layer="801" to-port="4"/>
		<edge from-layer="803" from-port="0" to-layer="804" to-port="0"/>
		<edge from-layer="804" from-port="1" to-layer="805" to-port="0"/>
		<edge from-layer="802" from-port="0" to-layer="805" to-port="1"/>
		<edge from-layer="801" from-port="5" to-layer="806" to-port="0"/>
		<edge from-layer="805" from-port="2" to-layer="806" to-port="1"/>
		<edge from-layer="807" from-port="0" to-layer="808" to-port="0"/>
		<edge from-layer="806" from-port="2" to-layer="809" to-port="0"/>
		<edge from-layer="808" from-port="1" to-layer="809" to-port="1"/>
		<edge from-layer="809" from-port="2" to-layer="810" to-port="0"/>
		<edge from-layer="810" from-port="1" to-layer="811" to-port="0"/>
		<edge from-layer="784" from-port="0" to-layer="811" to-port="1"/>
		<edge from-layer="785" from-port="0" to-layer="811" to-port="2"/>
		<edge from-layer="786" from-port="0" to-layer="811" to-port="3"/>
		<edge from-layer="787" from-port="0" to-layer="811" to-port="4"/>
		<edge from-layer="825" from-port="0" to-layer="826" to-port="0"/>
		<edge from-layer="826" from-port="1" to-layer="827" to-port="0"/>
		<edge from-layer="824" from-port="0" to-layer="827" to-port="1"/>
		<edge from-layer="773" from-port="5" to-layer="828" to-port="0"/>
		<edge from-layer="827" from-port="2" to-layer="828" to-port="1"/>
		<edge from-layer="829" from-port="0" to-layer="830" to-port="0"/>
		<edge from-layer="828" from-port="2" to-layer="831" to-port="0"/>
		<edge from-layer="830" from-port="1" to-layer="831" to-port="1"/>
		<edge from-layer="831" from-port="2" to-layer="832" to-port="0"/>
		<edge from-layer="832" from-port="1" to-layer="833" to-port="0"/>
		<edge from-layer="820" from-port="0" to-layer="833" to-port="1"/>
		<edge from-layer="821" from-port="0" to-layer="833" to-port="2"/>
		<edge from-layer="822" from-port="0" to-layer="833" to-port="3"/>
		<edge from-layer="823" from-port="0" to-layer="833" to-port="4"/>
		<edge from-layer="835" from-port="0" to-layer="836" to-port="0"/>
		<edge from-layer="836" from-port="1" to-layer="837" to-port="0"/>
		<edge from-layer="834" from-port="0" to-layer="837" to-port="1"/>
		<edge from-layer="833" from-port="5" to-layer="838" to-port="0"/>
		<edge from-layer="837" from-port="2" to-layer="838" to-port="1"/>
		<edge from-layer="839" from-port="0" to-layer="840" to-port="0"/>
		<edge from-layer="838" from-port="2" to-layer="841" to-port="0"/>
		<edge from-layer="840" from-port="1" to-layer="841" to-port="1"/>
		<edge from-layer="841" from-port="2" to-layer="842" to-port="0"/>
		<edge from-layer="842" from-port="1" to-layer="843" to-port="0"/>
		<edge from-layer="816" from-port="0" to-layer="843" to-port="1"/>
		<edge from-layer="817" from-port="0" to-layer="843" to-port="2"/>
		<edge from-layer="818" from-port="0" to-layer="843" to-port="3"/>
		<edge from-layer="819" from-port="0" to-layer="843" to-port="4"/>
		<edge from-layer="845" from-port="0" to-layer="846" to-port="0"/>
		<edge from-layer="846" from-port="1" to-layer="847" to-port="0"/>
		<edge from-layer="844" from-port="0" to-layer="847" to-port="1"/>
		<edge from-layer="843" from-port="5" to-layer="848" to-port="0"/>
		<edge from-layer="847" from-port="2" to-layer="848" to-port="1"/>
		<edge from-layer="849" from-port="0" to-layer="850" to-port="0"/>
		<edge from-layer="848" from-port="2" to-layer="851" to-port="0"/>
		<edge from-layer="850" from-port="1" to-layer="851" to-port="1"/>
		<edge from-layer="851" from-port="2" to-layer="852" to-port="0"/>
		<edge from-layer="852" from-port="1" to-layer="853" to-port="0"/>
		<edge from-layer="812" from-port="0" to-layer="853" to-port="1"/>
		<edge from-layer="813" from-port="0" to-layer="853" to-port="2"/>
		<edge from-layer="814" from-port="0" to-layer="853" to-port="3"/>
		<edge from-layer="815" from-port="0" to-layer="853" to-port="4"/>
		<edge from-layer="783" from-port="5" to-layer="854" to-port="0"/>
		<edge from-layer="811" from-port="5" to-layer="854" to-port="1"/>
		<edge from-layer="853" from-port="5" to-layer="854" to-port="2"/>
		<edge from-layer="856" from-port="0" to-layer="857" to-port="0"/>
		<edge from-layer="857" from-port="1" to-layer="858" to-port="0"/>
		<edge from-layer="855" from-port="0" to-layer="858" to-port="1"/>
		<edge from-layer="854" from-port="3" to-layer="859" to-port="0"/>
		<edge from-layer="858" from-port="2" to-layer="859" to-port="1"/>
		<edge from-layer="860" from-port="0" to-layer="861" to-port="0"/>
		<edge from-layer="859" from-port="2" to-layer="862" to-port="0"/>
		<edge from-layer="861" from-port="1" to-layer="862" to-port="1"/>
		<edge from-layer="862" from-port="2" to-layer="863" to-port="0"/>
		<edge from-layer="629" from-port="0" to-layer="863" to-port="1"/>
		<edge from-layer="630" from-port="0" to-layer="863" to-port="2"/>
		<edge from-layer="631" from-port="0" to-layer="863" to-port="3"/>
		<edge from-layer="632" from-port="0" to-layer="863" to-port="4"/>
		<edge from-layer="771" from-port="2" to-layer="868" to-port="0"/>
		<edge from-layer="864" from-port="0" to-layer="868" to-port="1"/>
		<edge from-layer="865" from-port="0" to-layer="868" to-port="2"/>
		<edge from-layer="866" from-port="0" to-layer="868" to-port="3"/>
		<edge from-layer="867" from-port="0" to-layer="868" to-port="4"/>
		<edge from-layer="863" from-port="5" to-layer="869" to-port="0"/>
		<edge from-layer="868" from-port="5" to-layer="869" to-port="1"/>
		<edge from-layer="869" from-port="2" to-layer="870" to-port="0"/>
		<edge from-layer="870" from-port="1" to-layer="871" to-port="0"/>
		<edge from-layer="625" from-port="0" to-layer="871" to-port="1"/>
		<edge from-layer="626" from-port="0" to-layer="871" to-port="2"/>
		<edge from-layer="627" from-port="0" to-layer="871" to-port="3"/>
		<edge from-layer="628" from-port="0" to-layer="871" to-port="4"/>
		<edge from-layer="873" from-port="0" to-layer="874" to-port="0"/>
		<edge from-layer="874" from-port="1" to-layer="875" to-port="0"/>
		<edge from-layer="872" from-port="0" to-layer="875" to-port="1"/>
		<edge from-layer="871" from-port="5" to-layer="876" to-port="0"/>
		<edge from-layer="875" from-port="2" to-layer="876" to-port="1"/>
		<edge from-layer="877" from-port="0" to-layer="878" to-port="0"/>
		<edge from-layer="876" from-port="2" to-layer="879" to-port="0"/>
		<edge from-layer="878" from-port="1" to-layer="879" to-port="1"/>
		<edge from-layer="879" from-port="2" to-layer="880" to-port="0"/>
		<edge from-layer="880" from-port="1" to-layer="881" to-port="0"/>
		<edge from-layer="621" from-port="0" to-layer="881" to-port="1"/>
		<edge from-layer="622" from-port="0" to-layer="881" to-port="2"/>
		<edge from-layer="623" from-port="0" to-layer="881" to-port="3"/>
		<edge from-layer="624" from-port="0" to-layer="881" to-port="4"/>
		<edge from-layer="891" from-port="0" to-layer="892" to-port="0"/>
		<edge from-layer="892" from-port="1" to-layer="893" to-port="0"/>
		<edge from-layer="890" from-port="0" to-layer="893" to-port="1"/>
		<edge from-layer="871" from-port="5" to-layer="894" to-port="0"/>
		<edge from-layer="893" from-port="2" to-layer="894" to-port="1"/>
		<edge from-layer="895" from-port="0" to-layer="896" to-port="0"/>
		<edge from-layer="894" from-port="2" to-layer="897" to-port="0"/>
		<edge from-layer="896" from-port="1" to-layer="897" to-port="1"/>
		<edge from-layer="897" from-port="2" to-layer="898" to-port="0"/>
		<edge from-layer="898" from-port="1" to-layer="899" to-port="0"/>
		<edge from-layer="886" from-port="0" to-layer="899" to-port="1"/>
		<edge from-layer="887" from-port="0" to-layer="899" to-port="2"/>
		<edge from-layer="888" from-port="0" to-layer="899" to-port="3"/>
		<edge from-layer="889" from-port="0" to-layer="899" to-port="4"/>
		<edge from-layer="901" from-port="0" to-layer="902" to-port="0"/>
		<edge from-layer="902" from-port="1" to-layer="903" to-port="0"/>
		<edge from-layer="900" from-port="0" to-layer="903" to-port="1"/>
		<edge from-layer="899" from-port="5" to-layer="904" to-port="0"/>
		<edge from-layer="903" from-port="2" to-layer="904" to-port="1"/>
		<edge from-layer="905" from-port="0" to-layer="906" to-port="0"/>
		<edge from-layer="904" from-port="2" to-layer="907" to-port="0"/>
		<edge from-layer="906" from-port="1" to-layer="907" to-port="1"/>
		<edge from-layer="907" from-port="2" to-layer="908" to-port="0"/>
		<edge from-layer="908" from-port="1" to-layer="909" to-port="0"/>
		<edge from-layer="882" from-port="0" to-layer="909" to-port="1"/>
		<edge from-layer="883" from-port="0" to-layer="909" to-port="2"/>
		<edge from-layer="884" from-port="0" to-layer="909" to-port="3"/>
		<edge from-layer="885" from-port="0" to-layer="909" to-port="4"/>
		<edge from-layer="923" from-port="0" to-layer="924" to-port="0"/>
		<edge from-layer="924" from-port="1" to-layer="925" to-port="0"/>
		<edge from-layer="922" from-port="0" to-layer="925" to-port="1"/>
		<edge from-layer="871" from-port="5" to-layer="926" to-port="0"/>
		<edge from-layer="925" from-port="2" to-layer="926" to-port="1"/>
		<edge from-layer="927" from-port="0" to-layer="928" to-port="0"/>
		<edge from-layer="926" from-port="2" to-layer="929" to-port="0"/>
		<edge from-layer="928" from-port="1" to-layer="929" to-port="1"/>
		<edge from-layer="929" from-port="2" to-layer="930" to-port="0"/>
		<edge from-layer="930" from-port="1" to-layer="931" to-port="0"/>
		<edge from-layer="918" from-port="0" to-layer="931" to-port="1"/>
		<edge from-layer="919" from-port="0" to-layer="931" to-port="2"/>
		<edge from-layer="920" from-port="0" to-layer="931" to-port="3"/>
		<edge from-layer="921" from-port="0" to-layer="931" to-port="4"/>
		<edge from-layer="933" from-port="0" to-layer="934" to-port="0"/>
		<edge from-layer="934" from-port="1" to-layer="935" to-port="0"/>
		<edge from-layer="932" from-port="0" to-layer="935" to-port="1"/>
		<edge from-layer="931" from-port="5" to-layer="936" to-port="0"/>
		<edge from-layer="935" from-port="2" to-layer="936" to-port="1"/>
		<edge from-layer="937" from-port="0" to-layer="938" to-port="0"/>
		<edge from-layer="936" from-port="2" to-layer="939" to-port="0"/>
		<edge from-layer="938" from-port="1" to-layer="939" to-port="1"/>
		<edge from-layer="939" from-port="2" to-layer="940" to-port="0"/>
		<edge from-layer="940" from-port="1" to-layer="941" to-port="0"/>
		<edge from-layer="914" from-port="0" to-layer="941" to-port="1"/>
		<edge from-layer="915" from-port="0" to-layer="941" to-port="2"/>
		<edge from-layer="916" from-port="0" to-layer="941" to-port="3"/>
		<edge from-layer="917" from-port="0" to-layer="941" to-port="4"/>
		<edge from-layer="943" from-port="0" to-layer="944" to-port="0"/>
		<edge from-layer="944" from-port="1" to-layer="945" to-port="0"/>
		<edge from-layer="942" from-port="0" to-layer="945" to-port="1"/>
		<edge from-layer="941" from-port="5" to-layer="946" to-port="0"/>
		<edge from-layer="945" from-port="2" to-layer="946" to-port="1"/>
		<edge from-layer="947" from-port="0" to-layer="948" to-port="0"/>
		<edge from-layer="946" from-port="2" to-layer="949" to-port="0"/>
		<edge from-layer="948" from-port="1" to-layer="949" to-port="1"/>
		<edge from-layer="949" from-port="2" to-layer="950" to-port="0"/>
		<edge from-layer="950" from-port="1" to-layer="951" to-port="0"/>
		<edge from-layer="910" from-port="0" to-layer="951" to-port="1"/>
		<edge from-layer="911" from-port="0" to-layer="951" to-port="2"/>
		<edge from-layer="912" from-port="0" to-layer="951" to-port="3"/>
		<edge from-layer="913" from-port="0" to-layer="951" to-port="4"/>
		<edge from-layer="881" from-port="5" to-layer="952" to-port="0"/>
		<edge from-layer="909" from-port="5" to-layer="952" to-port="1"/>
		<edge from-layer="951" from-port="5" to-layer="952" to-port="2"/>
		<edge from-layer="954" from-port="0" to-layer="955" to-port="0"/>
		<edge from-layer="955" from-port="1" to-layer="956" to-port="0"/>
		<edge from-layer="953" from-port="0" to-layer="956" to-port="1"/>
		<edge from-layer="952" from-port="3" to-layer="957" to-port="0"/>
		<edge from-layer="956" from-port="2" to-layer="957" to-port="1"/>
		<edge from-layer="958" from-port="0" to-layer="959" to-port="0"/>
		<edge from-layer="957" from-port="2" to-layer="960" to-port="0"/>
		<edge from-layer="959" from-port="1" to-layer="960" to-port="1"/>
		<edge from-layer="960" from-port="2" to-layer="961" to-port="0"/>
		<edge from-layer="617" from-port="0" to-layer="961" to-port="1"/>
		<edge from-layer="618" from-port="0" to-layer="961" to-port="2"/>
		<edge from-layer="619" from-port="0" to-layer="961" to-port="3"/>
		<edge from-layer="620" from-port="0" to-layer="961" to-port="4"/>
		<edge from-layer="869" from-port="2" to-layer="966" to-port="0"/>
		<edge from-layer="962" from-port="0" to-layer="966" to-port="1"/>
		<edge from-layer="963" from-port="0" to-layer="966" to-port="2"/>
		<edge from-layer="964" from-port="0" to-layer="966" to-port="3"/>
		<edge from-layer="965" from-port="0" to-layer="966" to-port="4"/>
		<edge from-layer="961" from-port="5" to-layer="967" to-port="0"/>
		<edge from-layer="966" from-port="5" to-layer="967" to-port="1"/>
		<edge from-layer="967" from-port="2" to-layer="968" to-port="0"/>
		<edge from-layer="968" from-port="1" to-layer="969" to-port="0"/>
		<edge from-layer="613" from-port="0" to-layer="969" to-port="1"/>
		<edge from-layer="614" from-port="0" to-layer="969" to-port="2"/>
		<edge from-layer="615" from-port="0" to-layer="969" to-port="3"/>
		<edge from-layer="616" from-port="0" to-layer="969" to-port="4"/>
		<edge from-layer="971" from-port="0" to-layer="972" to-port="0"/>
		<edge from-layer="972" from-port="1" to-layer="973" to-port="0"/>
		<edge from-layer="970" from-port="0" to-layer="973" to-port="1"/>
		<edge from-layer="969" from-port="5" to-layer="974" to-port="0"/>
		<edge from-layer="973" from-port="2" to-layer="974" to-port="1"/>
		<edge from-layer="975" from-port="0" to-layer="976" to-port="0"/>
		<edge from-layer="974" from-port="2" to-layer="977" to-port="0"/>
		<edge from-layer="976" from-port="1" to-layer="977" to-port="1"/>
		<edge from-layer="977" from-port="2" to-layer="978" to-port="0"/>
		<edge from-layer="978" from-port="1" to-layer="979" to-port="0"/>
		<edge from-layer="609" from-port="0" to-layer="979" to-port="1"/>
		<edge from-layer="610" from-port="0" to-layer="979" to-port="2"/>
		<edge from-layer="611" from-port="0" to-layer="979" to-port="3"/>
		<edge from-layer="612" from-port="0" to-layer="979" to-port="4"/>
		<edge from-layer="989" from-port="0" to-layer="990" to-port="0"/>
		<edge from-layer="990" from-port="1" to-layer="991" to-port="0"/>
		<edge from-layer="988" from-port="0" to-layer="991" to-port="1"/>
		<edge from-layer="969" from-port="5" to-layer="992" to-port="0"/>
		<edge from-layer="991" from-port="2" to-layer="992" to-port="1"/>
		<edge from-layer="993" from-port="0" to-layer="994" to-port="0"/>
		<edge from-layer="992" from-port="2" to-layer="995" to-port="0"/>
		<edge from-layer="994" from-port="1" to-layer="995" to-port="1"/>
		<edge from-layer="995" from-port="2" to-layer="996" to-port="0"/>
		<edge from-layer="996" from-port="1" to-layer="997" to-port="0"/>
		<edge from-layer="984" from-port="0" to-layer="997" to-port="1"/>
		<edge from-layer="985" from-port="0" to-layer="997" to-port="2"/>
		<edge from-layer="986" from-port="0" to-layer="997" to-port="3"/>
		<edge from-layer="987" from-port="0" to-layer="997" to-port="4"/>
		<edge from-layer="999" from-port="0" to-layer="1000" to-port="0"/>
		<edge from-layer="1000" from-port="1" to-layer="1001" to-port="0"/>
		<edge from-layer="998" from-port="0" to-layer="1001" to-port="1"/>
		<edge from-layer="997" from-port="5" to-layer="1002" to-port="0"/>
		<edge from-layer="1001" from-port="2" to-layer="1002" to-port="1"/>
		<edge from-layer="1003" from-port="0" to-layer="1004" to-port="0"/>
		<edge from-layer="1002" from-port="2" to-layer="1005" to-port="0"/>
		<edge from-layer="1004" from-port="1" to-layer="1005" to-port="1"/>
		<edge from-layer="1005" from-port="2" to-layer="1006" to-port="0"/>
		<edge from-layer="1006" from-port="1" to-layer="1007" to-port="0"/>
		<edge from-layer="980" from-port="0" to-layer="1007" to-port="1"/>
		<edge from-layer="981" from-port="0" to-layer="1007" to-port="2"/>
		<edge from-layer="982" from-port="0" to-layer="1007" to-port="3"/>
		<edge from-layer="983" from-port="0" to-layer="1007" to-port="4"/>
		<edge from-layer="1021" from-port="0" to-layer="1022" to-port="0"/>
		<edge from-layer="1022" from-port="1" to-layer="1023" to-port="0"/>
		<edge from-layer="1020" from-port="0" to-layer="1023" to-port="1"/>
		<edge from-layer="969" from-port="5" to-layer="1024" to-port="0"/>
		<edge from-layer="1023" from-port="2" to-layer="1024" to-port="1"/>
		<edge from-layer="1025" from-port="0" to-layer="1026" to-port="0"/>
		<edge from-layer="1024" from-port="2" to-layer="1027" to-port="0"/>
		<edge from-layer="1026" from-port="1" to-layer="1027" to-port="1"/>
		<edge from-layer="1027" from-port="2" to-layer="1028" to-port="0"/>
		<edge from-layer="1028" from-port="1" to-layer="1029" to-port="0"/>
		<edge from-layer="1016" from-port="0" to-layer="1029" to-port="1"/>
		<edge from-layer="1017" from-port="0" to-layer="1029" to-port="2"/>
		<edge from-layer="1018" from-port="0" to-layer="1029" to-port="3"/>
		<edge from-layer="1019" from-port="0" to-layer="1029" to-port="4"/>
		<edge from-layer="1031" from-port="0" to-layer="1032" to-port="0"/>
		<edge from-layer="1032" from-port="1" to-layer="1033" to-port="0"/>
		<edge from-layer="1030" from-port="0" to-layer="1033" to-port="1"/>
		<edge from-layer="1029" from-port="5" to-layer="1034" to-port="0"/>
		<edge from-layer="1033" from-port="2" to-layer="1034" to-port="1"/>
		<edge from-layer="1035" from-port="0" to-layer="1036" to-port="0"/>
		<edge from-layer="1034" from-port="2" to-layer="1037" to-port="0"/>
		<edge from-layer="1036" from-port="1" to-layer="1037" to-port="1"/>
		<edge from-layer="1037" from-port="2" to-layer="1038" to-port="0"/>
		<edge from-layer="1038" from-port="1" to-layer="1039" to-port="0"/>
		<edge from-layer="1012" from-port="0" to-layer="1039" to-port="1"/>
		<edge from-layer="1013" from-port="0" to-layer="1039" to-port="2"/>
		<edge from-layer="1014" from-port="0" to-layer="1039" to-port="3"/>
		<edge from-layer="1015" from-port="0" to-layer="1039" to-port="4"/>
		<edge from-layer="1041" from-port="0" to-layer="1042" to-port="0"/>
		<edge from-layer="1042" from-port="1" to-layer="1043" to-port="0"/>
		<edge from-layer="1040" from-port="0" to-layer="1043" to-port="1"/>
		<edge from-layer="1039" from-port="5" to-layer="1044" to-port="0"/>
		<edge from-layer="1043" from-port="2" to-layer="1044" to-port="1"/>
		<edge from-layer="1045" from-port="0" to-layer="1046" to-port="0"/>
		<edge from-layer="1044" from-port="2" to-layer="1047" to-port="0"/>
		<edge from-layer="1046" from-port="1" to-layer="1047" to-port="1"/>
		<edge from-layer="1047" from-port="2" to-layer="1048" to-port="0"/>
		<edge from-layer="1048" from-port="1" to-layer="1049" to-port="0"/>
		<edge from-layer="1008" from-port="0" to-layer="1049" to-port="1"/>
		<edge from-layer="1009" from-port="0" to-layer="1049" to-port="2"/>
		<edge from-layer="1010" from-port="0" to-layer="1049" to-port="3"/>
		<edge from-layer="1011" from-port="0" to-layer="1049" to-port="4"/>
		<edge from-layer="979" from-port="5" to-layer="1050" to-port="0"/>
		<edge from-layer="1007" from-port="5" to-layer="1050" to-port="1"/>
		<edge from-layer="1049" from-port="5" to-layer="1050" to-port="2"/>
		<edge from-layer="1052" from-port="0" to-layer="1053" to-port="0"/>
		<edge from-layer="1053" from-port="1" to-layer="1054" to-port="0"/>
		<edge from-layer="1051" from-port="0" to-layer="1054" to-port="1"/>
		<edge from-layer="1050" from-port="3" to-layer="1055" to-port="0"/>
		<edge from-layer="1054" from-port="2" to-layer="1055" to-port="1"/>
		<edge from-layer="1056" from-port="0" to-layer="1057" to-port="0"/>
		<edge from-layer="1055" from-port="2" to-layer="1058" to-port="0"/>
		<edge from-layer="1057" from-port="1" to-layer="1058" to-port="1"/>
		<edge from-layer="1058" from-port="2" to-layer="1059" to-port="0"/>
		<edge from-layer="605" from-port="0" to-layer="1059" to-port="1"/>
		<edge from-layer="606" from-port="0" to-layer="1059" to-port="2"/>
		<edge from-layer="607" from-port="0" to-layer="1059" to-port="3"/>
		<edge from-layer="608" from-port="0" to-layer="1059" to-port="4"/>
		<edge from-layer="967" from-port="2" to-layer="1064" to-port="0"/>
		<edge from-layer="1060" from-port="0" to-layer="1064" to-port="1"/>
		<edge from-layer="1061" from-port="0" to-layer="1064" to-port="2"/>
		<edge from-layer="1062" from-port="0" to-layer="1064" to-port="3"/>
		<edge from-layer="1063" from-port="0" to-layer="1064" to-port="4"/>
		<edge from-layer="1059" from-port="5" to-layer="1065" to-port="0"/>
		<edge from-layer="1064" from-port="5" to-layer="1065" to-port="1"/>
		<edge from-layer="1068" from-port="0" to-layer="1069" to-port="0"/>
		<edge from-layer="1069" from-port="1" to-layer="1070" to-port="0"/>
		<edge from-layer="1067" from-port="0" to-layer="1070" to-port="1"/>
		<edge from-layer="761" from-port="5" to-layer="1071" to-port="0"/>
		<edge from-layer="1070" from-port="2" to-layer="1071" to-port="1"/>
		<edge from-layer="1071" from-port="2" to-layer="1072" to-port="0"/>
		<edge from-layer="1066" from-port="0" to-layer="1072" to-port="1"/>
		<edge from-layer="1065" from-port="2" to-layer="1073" to-port="0"/>
		<edge from-layer="1072" from-port="2" to-layer="1073" to-port="1"/>
		<edge from-layer="1073" from-port="2" to-layer="1074" to-port="0"/>
		<edge from-layer="1074" from-port="1" to-layer="1075" to-port="0"/>
		<edge from-layer="601" from-port="0" to-layer="1075" to-port="1"/>
		<edge from-layer="602" from-port="0" to-layer="1075" to-port="2"/>
		<edge from-layer="603" from-port="0" to-layer="1075" to-port="3"/>
		<edge from-layer="604" from-port="0" to-layer="1075" to-port="4"/>
		<edge from-layer="1077" from-port="0" to-layer="1078" to-port="0"/>
		<edge from-layer="1078" from-port="1" to-layer="1079" to-port="0"/>
		<edge from-layer="1076" from-port="0" to-layer="1079" to-port="1"/>
		<edge from-layer="1075" from-port="5" to-layer="1080" to-port="0"/>
		<edge from-layer="1079" from-port="2" to-layer="1080" to-port="1"/>
		<edge from-layer="1080" from-port="2" to-layer="1081" to-port="0"/>
		<edge from-layer="600" from-port="0" to-layer="1081" to-port="1"/>
		<edge from-layer="1081" from-port="2" to-layer="1083" to-port="0"/>
		<edge from-layer="1082" from-port="0" to-layer="1083" to-port="1"/>
		<edge from-layer="1083" from-port="2" to-layer="1084" to-port="0"/>
		<edge from-layer="1088" from-port="0" to-layer="1089" to-port="0"/>
		<edge from-layer="1089" from-port="1" to-layer="1090" to-port="0"/>
		<edge from-layer="1087" from-port="0" to-layer="1090" to-port="1"/>
		<edge from-layer="1075" from-port="5" to-layer="1091" to-port="0"/>
		<edge from-layer="1090" from-port="2" to-layer="1091" to-port="1"/>
		<edge from-layer="1091" from-port="2" to-layer="1092" to-port="0"/>
		<edge from-layer="1086" from-port="0" to-layer="1092" to-port="1"/>
		<edge from-layer="1092" from-port="2" to-layer="1094" to-port="0"/>
		<edge from-layer="1093" from-port="0" to-layer="1094" to-port="1"/>
		<edge from-layer="1094" from-port="2" to-layer="1095" to-port="0"/>
		<edge from-layer="1099" from-port="0" to-layer="1100" to-port="0"/>
		<edge from-layer="1100" from-port="1" to-layer="1101" to-port="0"/>
		<edge from-layer="1098" from-port="0" to-layer="1101" to-port="1"/>
		<edge from-layer="1075" from-port="5" to-layer="1102" to-port="0"/>
		<edge from-layer="1101" from-port="2" to-layer="1102" to-port="1"/>
		<edge from-layer="1102" from-port="2" to-layer="1103" to-port="0"/>
		<edge from-layer="1097" from-port="0" to-layer="1103" to-port="1"/>
		<edge from-layer="1103" from-port="2" to-layer="1105" to-port="0"/>
		<edge from-layer="1104" from-port="0" to-layer="1105" to-port="1"/>
		<edge from-layer="1105" from-port="2" to-layer="1106" to-port="0"/>
		<edge from-layer="1084" from-port="1" to-layer="1085" to-port="0"/>
		<edge from-layer="1095" from-port="1" to-layer="1096" to-port="0"/>
		<edge from-layer="1106" from-port="1" to-layer="1107" to-port="0"/>
	</edges>
	<meta_data>
		<MO_version value="custom_HEAD_0e242b324458ed332f0907ac6d88fc24b610d9b9"/>
		<Runtime_version value="2022.3.0-000-0e242b32445-HEAD"/>
		<legacy_path value="True"/>
		<cli_parameters>
			<caffe_parser_path value="DIR"/>
			<data_type value="FP16"/>
			<disable_nhwc_to_nchw value="False"/>
			<disable_omitting_optional value="False"/>
			<disable_resnet_optimization value="False"/>
			<disable_weights_compression value="False"/>
			<enable_concat_optimization value="False"/>
			<enable_flattening_nested_params value="False"/>
			<enable_ssd_gluoncv value="False"/>
			<extensions value="['/opt/home/sys_k8sworker/workspace/DL-Benchmark/try/convert']"/>
			<framework value="onnx"/>
			<input value="0"/>
			<input_model value="DIR/person-attributes-recognition-crossroad-0230.onnx"/>
			<input_model_is_text value="False"/>
			<input_shape value="[1,3,160,80]"/>
			<k value="DIR/CustomLayersMapping.xml"/>
			<layout value="0(nchw)"/>
			<legacy_mxnet_model value="False"/>
			<log_level value="ERROR"/>
			<mean_values value="0[128.0,128.0,128.0]"/>
			<model_name value="person-attributes-recognition-crossroad-0230"/>
			<output value="453,456,459"/>
			<output_dir value="DIR"/>
			<progress value="False"/>
			<remove_memory value="False"/>
			<remove_output_softmax value="False"/>
			<reverse_input_channels value="False"/>
			<save_params_from_nd value="False"/>
			<scale_values value="0[255.0]"/>
			<silent value="True"/>
			<source_layout value="()"/>
			<static_shape value="False"/>
			<stream_output value="False"/>
			<target_layout value="()"/>
			<transform value=""/>
			<use_legacy_frontend value="False"/>
			<use_new_frontend value="False"/>
			<unset unset_cli_parameters="batch, counts, disable_fusing, finegrain_fusing, freeze_placeholder_with_value, input_checkpoint, input_meta_graph, input_proto, input_symbol, mean_file, mean_file_offsets, nd_prefix_name, pretrained_model_name, saved_model_dir, saved_model_tags, scale, tensorboard_logdir, tensorflow_custom_layer_libraries, tensorflow_custom_operations_config_update, tensorflow_object_detection_api_pipeline_config, tensorflow_use_custom_operations_config, transformations_config"/>
		</cli_parameters>
	</meta_data>
	<quantization_parameters>
		<config>{
		'compression': {
			'algorithms': [
				{
					'name': 'DefaultQuantization',
					'params': {
						'num_samples_for_tuning': 2000,
						'preset': 'performance',
						'stat_subset_size': 300,
						'use_layerwise_tuning': false
					}
				}
			],
			'dump_intermediate_model': true,
			'target_device': 'ANY'
		},
		'engine': {
			'models': [
				{
					'name': 'person-attributes-recognition-crossroad-0230',
					'launchers': [
						{
							'framework': 'openvino',
							'adapter': {
								'type': 'person_attributes',
								'attributes_recognition_out': '453'
							},
							'device': 'cpu'
						}
					],
					'datasets': [
						{
							'name': 'person_8_attributes',
							'data_source': 'PATH',
							'annotation_conversion': {
								'converter': 'market15_person_attributes',
								'annotation_file': 'PATH'
							},
							'annotation': 'PATH',
							'dataset_meta': 'PATH',
							'preprocessing': [
								{
									'type': 'crop_rect'
								},
								{
									'type': 'resize',
									'dst_width': 80,
									'dst_height': 160
								}
							],
							'metrics': [
								{
									'type': 'f1-score',
									'calculate_average': false,
									'presenter': 'print_vector',
									'reference': {
										'has_backpack': 0.77,
										'has_bag': 0.66,
										'has_hat': 0.64,
										'has_longhair': 0.83,
										'has_longpants': 0.83,
										'has_longsleeves': 0.21,
										'is male': 0.91
									}
								}
							],
							'_command_line_mapping': {
								'annotation_file': 'PATH'
							}
						}
					]
				}
			],
			'stat_requests_number': null,
			'eval_requests_number': null,
			'type': 'accuracy_checker'
		}
	}</config>
		<version value="invalid version"/>
		<cli_params value="{'quantize': None, 'preset': None, 'model': None, 'weights': None, 'name': None, 'engine': None, 'ac_config': None, 'max_drop': None, 'evaluate': False, 'output_dir': 'PATH', 'direct_dump': True, 'log_level': 'INFO', 'pbar': False, 'stream_output': False, 'keep_uncompressed_weights': False, 'data_source': None}"/>
	</quantization_parameters>
</net>
